…
2018-10-27 00:49:39,340 - INFO - allennlp.common.params - evaluate_on_test = False
2018-10-27 00:49:39,342 - INFO - allennlp.training.trainer - Beginning training.
2018-10-27 00:49:39,342 - INFO - allennlp.training.trainer - Epoch 0/7
2018-10-27 00:49:39,342 - INFO - allennlp.training.trainer - Peak CPU memory usage MB: 2465.96
2018-10-27 00:49:39,409 - INFO - allennlp.training.trainer - GPU 0 memory usage MB: 522
2018-10-27 00:49:39,410 - INFO - allennlp.training.trainer - Training
2018-10-27 00:49:42,455 - INFO - root - Args: (SimpleSeq2SeqWithMetrics(
  (_source_embedder): BasicTextFieldEmbedder(
    (token_embedder_tokens): Embedding()
  )
  (_encoder): PytorchSeq2SeqWrapper(
    (_module): LSTM(100, 200, num_layers=2, batch_first=True, dropout=0.5)
  )
  (_target_embedder): Embedding()
  (_decoder_cell): LSTMCell(100, 200)
  (_output_projection_layer): Linear(in_features=200, out_features=23, bias=True)
),), Kwargs: {'source_tokens': {'tokens': tensor([[ 4, 18, 14, 10, 12, 17, 18,  5]], device='cuda:0')}, 'target_tokens': {'tokens': tensor([[4, 2, 2, 7, 2, 2, 7, 7, 5]], device='cuda:0')}}
2018-10-27 00:49:50,560 - INFO - root - Args: (SimpleSeq2SeqWithMetrics(
  (_source_embedder): BasicTextFieldEmbedder(
    (token_embedder_tokens): Embedding()
  )
  (_encoder): PytorchSeq2SeqWrapper(
    (_module): LSTM(100, 200, num_layers=2, batch_first=True, dropout=0.5)
  )
  (_target_embedder): Embedding()
  (_decoder_cell): LSTMCell(100, 200)
  (_output_projection_layer): Linear(in_features=200, out_features=23, bias=True)
),), Kwargs: {'source_tokens': {'tokens': tensor([[ 4, 21, 15, 11, 13, 16, 19, 15, 10, 12,  5]], device='cuda:0')}, 'target_tokens': {'tokens': tensor([[4, 2, 6, 2, 6, 2, 6, 2, 6, 2, 6, 2, 6, 2, 6, 2, 6, 3, 9, 3, 9, 3, 9, 3,
         9, 3, 9, 3, 9, 3, 9, 3, 9, 3, 9, 3, 9, 3, 9, 3, 9, 5]],
       device='cuda:0')}}
2018-10-27 00:49:53,900 - INFO - root - Args: (SimpleSeq2SeqWithMetrics(
  (_source_embedder): BasicTextFieldEmbedder(
    (token_embedder_tokens): Embedding()
  )
  (_encoder): PytorchSeq2SeqWrapper(
    (_module): LSTM(100, 200, num_layers=2, batch_first=True, dropout=0.5)
  )
  (_target_embedder): Embedding()
  (_decoder_cell): LSTMCell(100, 200)
  (_output_projection_layer): Linear(in_features=200, out_features=23, bias=True)
),), Kwargs: {'source_tokens': {'tokens': tensor([[ 4, 20, 14, 11, 12, 17, 22, 14, 10, 13,  5]], device='cuda:0')}, 'target_tokens': {'tokens': tensor([[4, 3, 3, 8, 3, 3, 8, 2, 2, 2, 2, 2, 2, 5]], device='cuda:0')}}
2018-10-27 00:49:53,922 - INFO - root - Args: (SimpleSeq2SeqWithMetrics(
  (_source_embedder): BasicTextFieldEmbedder(
    (token_embedder_tokens): Embedding()
  )
  (_encoder): PytorchSeq2SeqWrapper(
    (_module): LSTM(100, 200, num_layers=2, batch_first=True, dropout=0.5)
  )
  (_target_embedder): Embedding()
  (_decoder_cell): LSTMCell(100, 200)
  (_output_projection_layer): Linear(in_features=200, out_features=23, bias=True)
),), Kwargs: {'source_tokens': {'tokens': tensor([[ 4, 19, 11, 16, 22, 10, 12,  5]], device='cuda:0')}, 'target_tokens': {'tokens': tensor([[4, 2, 2, 3, 6, 5]], device='cuda:0')}}
2018-10-27 00:49:53,937 - INFO - root - Args: (SimpleSeq2SeqWithMetrics(
  (_source_embedder): BasicTextFieldEmbedder(
    (token_embedder_tokens): Embedding()
  )
  (_encoder): PytorchSeq2SeqWrapper(
    (_module): LSTM(100, 200, num_layers=2, batch_first=True, dropout=0.5)
  )
  (_target_embedder): Embedding()
  (_decoder_cell): LSTMCell(100, 200)
  (_output_projection_layer): Linear(in_features=200, out_features=23, bias=True)
),), Kwargs: {'source_tokens': {'tokens': tensor([[ 4, 21, 14, 10, 17, 19, 15, 10, 12,  5]], device='cuda:0')}, 'target_tokens': {'tokens': tensor([[4, 2, 2, 9, 2, 6, 2, 6, 2, 6, 2, 6, 2, 6, 2, 6, 2, 6, 2, 6, 5]],
       device='cuda:0')}}
2018-10-27 00:49:53,964 - INFO - root - Args: (SimpleSeq2SeqWithMetrics(
  (_source_embedder): BasicTextFieldEmbedder(
    (token_embedder_tokens): Embedding()
  )
  (_encoder): PytorchSeq2SeqWrapper(
    (_module): LSTM(100, 200, num_layers=2, batch_first=True, dropout=0.5)
  )
  (_target_embedder): Embedding()
  (_decoder_cell): LSTMCell(100, 200)
  (_output_projection_layer): Linear(in_features=200, out_features=23, bias=True)
),), Kwargs: {'source_tokens': {'tokens': tensor([[ 4, 21, 10, 12, 17, 21, 15, 11,  5]], device='cuda:0')}, 'target_tokens': {'tokens': tensor([[4, 2, 9, 2, 9, 3, 9, 3, 9, 3, 9, 3, 9, 5]], device='cuda:0')}}
2018-10-27 00:49:53,986 - INFO - root - Args: (SimpleSeq2SeqWithMetrics(
  (_source_embedder): BasicTextFieldEmbedder(
    (token_embedder_tokens): Embedding()
  )
  (_encoder): PytorchSeq2SeqWrapper(
    (_module): LSTM(100, 200, num_layers=2, batch_first=True, dropout=0.5)
  )
  (_target_embedder): Embedding()
  (_decoder_cell): LSTMCell(100, 200)
  (_output_projection_layer): Linear(in_features=200, out_features=23, bias=True)
),), Kwargs: {'source_tokens': {'tokens': tensor([[ 4, 21, 15, 10, 13, 16, 22, 15, 10, 13,  5]], device='cuda:0')}, 'target_tokens': {'tokens': tensor([[4, 2, 2, 2, 2, 2, 2, 2, 2, 2, 2, 2, 2, 2, 9, 2, 9, 2, 9, 2, 9, 2, 9, 2,
         9, 2, 9, 2, 9, 2, 9, 2, 9, 2, 9, 2, 9, 5]], device='cuda:0')}}
2018-10-27 00:49:54,023 - INFO - root - Args: (SimpleSeq2SeqWithMetrics(
  (_source_embedder): BasicTextFieldEmbedder(
    (token_embedder_tokens): Embedding()
  )
  (_encoder): PytorchSeq2SeqWrapper(
    (_module): LSTM(100, 200, num_layers=2, batch_first=True, dropout=0.5)
  )
  (_target_embedder): Embedding()
  (_decoder_cell): LSTMCell(100, 200)
  (_output_projection_layer): Linear(in_features=200, out_features=23, bias=True)
),), Kwargs: {'source_tokens': {'tokens': tensor([[ 4, 22, 11, 13, 17, 19, 15, 11, 13,  5]], device='cuda:0')}, 'target_tokens': {'tokens': tensor([[4, 3, 3, 3, 3, 6, 3, 6, 3, 6, 3, 6, 3, 6, 3, 6, 3, 6, 3, 6, 3, 6, 3, 6,
         3, 6, 3, 6, 5]], device='cuda:0')}}
2018-10-27 00:49:54,051 - INFO - root - Args: (SimpleSeq2SeqWithMetrics(
  (_source_embedder): BasicTextFieldEmbedder(
    (token_embedder_tokens): Embedding()
  )
  (_encoder): PytorchSeq2SeqWrapper(
    (_module): LSTM(100, 200, num_layers=2, batch_first=True, dropout=0.5)
  )
  (_target_embedder): Embedding()
  (_decoder_cell): LSTMCell(100, 200)
  (_output_projection_layer): Linear(in_features=200, out_features=23, bias=True)
),), Kwargs: {'source_tokens': {'tokens': tensor([[ 4, 18, 15, 10, 16, 20, 15, 11,  5]], device='cuda:0')}, 'target_tokens': {'tokens': tensor([[4, 3, 8, 3, 8, 3, 8, 3, 8, 2, 7, 2, 7, 2, 7, 2, 7, 5]], device='cuda:0')}}
2018-10-27 00:49:54,070 - INFO - root - Args: (SimpleSeq2SeqWithMetrics(
  (_source_embedder): BasicTextFieldEmbedder(
    (token_embedder_tokens): Embedding()
  )
  (_encoder): PytorchSeq2SeqWrapper(
    (_module): LSTM(100, 200, num_layers=2, batch_first=True, dropout=0.5)
  )
  (_target_embedder): Embedding()
  (_decoder_cell): LSTMCell(100, 200)
  (_output_projection_layer): Linear(in_features=200, out_features=23, bias=True)
),), Kwargs: {'source_tokens': {'tokens': tensor([[ 4, 22, 14, 11, 12, 16, 19, 15, 10, 13,  5]], device='cuda:0')}, 'target_tokens': {'tokens': tensor([[4, 2, 6, 2, 6, 2, 6, 2, 6, 2, 6, 2, 6, 2, 6, 2, 6, 2, 6, 2, 6, 2, 6, 2,
         6, 3, 3, 3, 3, 5]], device='cuda:0')}}
2018-10-27 00:49:54,098 - INFO - root - Args: (SimpleSeq2SeqWithMetrics(
  (_source_embedder): BasicTextFieldEmbedder(
    (token_embedder_tokens): Embedding()
  )
  (_encoder): PytorchSeq2SeqWrapper(
    (_module): LSTM(100, 200, num_layers=2, batch_first=True, dropout=0.5)
  )
  (_target_embedder): Embedding()
  (_decoder_cell): LSTMCell(100, 200)
  (_output_projection_layer): Linear(in_features=200, out_features=23, bias=True)
),), Kwargs: {'source_tokens': {'tokens': tensor([[ 4, 22, 11, 13, 16, 21, 14, 10, 12,  5]], device='cuda:0')}, 'target_tokens': {'tokens': tensor([[4, 2, 2, 9, 2, 2, 9, 3, 3, 3, 5]], device='cuda:0')}}
2018-10-27 00:49:54,114 - INFO - root - Args: (SimpleSeq2SeqWithMetrics(
  (_source_embedder): BasicTextFieldEmbedder(
    (token_embedder_tokens): Embedding()
  )
  (_encoder): PytorchSeq2SeqWrapper(
    (_module): LSTM(100, 200, num_layers=2, batch_first=True, dropout=0.5)
  )
  (_target_embedder): Embedding()
  (_decoder_cell): LSTMCell(100, 200)
  (_output_projection_layer): Linear(in_features=200, out_features=23, bias=True)
),), Kwargs: {'source_tokens': {'tokens': tensor([[ 4, 21, 15, 11, 17, 20, 15, 10, 12,  5]], device='cuda:0')}, 'target_tokens': {'tokens': tensor([[4, 3, 9, 3, 9, 3, 9, 3, 9, 2, 8, 2, 8, 2, 8, 2, 8, 2, 8, 2, 8, 2, 8, 2,
         8, 5]], device='cuda:0')}}
2018-10-27 00:49:54,140 - INFO - root - Args: (SimpleSeq2SeqWithMetrics(
  (_source_embedder): BasicTextFieldEmbedder(
    (token_embedder_tokens): Embedding()
  )
  (_encoder): PytorchSeq2SeqWrapper(
    (_module): LSTM(100, 200, num_layers=2, batch_first=True, dropout=0.5)
  )
  (_target_embedder): Embedding()
  (_decoder_cell): LSTMCell(100, 200)
  (_output_projection_layer): Linear(in_features=200, out_features=23, bias=True)
),), Kwargs: {'source_tokens': {'tokens': tensor([[ 4, 19, 13, 16, 22, 10, 13,  5]], device='cuda:0')}, 'target_tokens': {'tokens': tensor([[4, 2, 2, 2, 6, 6, 6, 5]], device='cuda:0')}}
2018-10-27 00:49:54,154 - INFO - root - Args: (SimpleSeq2SeqWithMetrics(
  (_source_embedder): BasicTextFieldEmbedder(
    (token_embedder_tokens): Embedding()
  )
  (_encoder): PytorchSeq2SeqWrapper(
    (_module): LSTM(100, 200, num_layers=2, batch_first=True, dropout=0.5)
  )
  (_target_embedder): Embedding()
  (_decoder_cell): LSTMCell(100, 200)
  (_output_projection_layer): Linear(in_features=200, out_features=23, bias=True)
),), Kwargs: {'source_tokens': {'tokens': tensor([[ 4, 18, 14, 11, 17, 20, 10,  5]], device='cuda:0')}, 'target_tokens': {'tokens': tensor([[4, 3, 3, 7, 2, 8, 5]], device='cuda:0')}}
2018-10-27 00:49:54,166 - INFO - root - Args: (SimpleSeq2SeqWithMetrics(
  (_source_embedder): BasicTextFieldEmbedder(
    (token_embedder_tokens): Embedding()
  )
  (_encoder): PytorchSeq2SeqWrapper(
    (_module): LSTM(100, 200, num_layers=2, batch_first=True, dropout=0.5)
  )
  (_target_embedder): Embedding()
  (_decoder_cell): LSTMCell(100, 200)
  (_output_projection_layer): Linear(in_features=200, out_features=23, bias=True)
),), Kwargs: {'source_tokens': {'tokens': tensor([[ 4, 18, 11, 17, 19, 10,  5]], device='cuda:0')}, 'target_tokens': {'tokens': tensor([[4, 3, 7, 2, 6, 5]], device='cuda:0')}}
2018-10-27 00:49:54,177 - INFO - root - Args: (SimpleSeq2SeqWithMetrics(
  (_source_embedder): BasicTextFieldEmbedder(
    (token_embedder_tokens): Embedding()
  )
  (_encoder): PytorchSeq2SeqWrapper(
    (_module): LSTM(100, 200, num_layers=2, batch_first=True, dropout=0.5)
  )
  (_target_embedder): Embedding()
  (_decoder_cell): LSTMCell(100, 200)
  (_output_projection_layer): Linear(in_features=200, out_features=23, bias=True)
),), Kwargs: {'source_tokens': {'tokens': tensor([[ 4, 19, 14, 11, 17, 19, 15, 11, 12,  5]], device='cuda:0')}, 'target_tokens': {'tokens': tensor([[4, 3, 3, 6, 3, 6, 3, 6, 3, 6, 3, 6, 3, 6, 3, 6, 3, 6, 3, 6, 5]],
       device='cuda:0')}}
2018-10-27 00:49:54,199 - INFO - root - Args: (SimpleSeq2SeqWithMetrics(
  (_source_embedder): BasicTextFieldEmbedder(
    (token_embedder_tokens): Embedding()
  )
  (_encoder): PytorchSeq2SeqWrapper(
    (_module): LSTM(100, 200, num_layers=2, batch_first=True, dropout=0.5)
  )
  (_target_embedder): Embedding()
  (_decoder_cell): LSTMCell(100, 200)
  (_output_projection_layer): Linear(in_features=200, out_features=23, bias=True)
),), Kwargs: {'source_tokens': {'tokens': tensor([[ 4, 22, 14, 11, 12, 17, 18, 11, 13,  5]], device='cuda:0')}, 'target_tokens': {'tokens': tensor([[4, 3, 3, 3, 3, 3, 7, 3, 7, 3, 7, 5]], device='cuda:0')}}
2018-10-27 00:49:54,215 - INFO - root - Args: (SimpleSeq2SeqWithMetrics(
  (_source_embedder): BasicTextFieldEmbedder(
    (token_embedder_tokens): Embedding()
  )
  (_encoder): PytorchSeq2SeqWrapper(
    (_module): LSTM(100, 200, num_layers=2, batch_first=True, dropout=0.5)
  )
  (_target_embedder): Embedding()
  (_decoder_cell): LSTMCell(100, 200)
  (_output_projection_layer): Linear(in_features=200, out_features=23, bias=True)
),), Kwargs: {'source_tokens': {'tokens': tensor([[ 4, 20, 14, 11, 13, 16, 18, 12,  5]], device='cuda:0')}, 'target_tokens': {'tokens': tensor([[4, 7, 7, 3, 3, 8, 3, 3, 8, 3, 3, 8, 5]], device='cuda:0')}}
2018-10-27 00:49:54,231 - INFO - root - Args: (SimpleSeq2SeqWithMetrics(
  (_source_embedder): BasicTextFieldEmbedder(
    (token_embedder_tokens): Embedding()
  )
  (_encoder): PytorchSeq2SeqWrapper(
    (_module): LSTM(100, 200, num_layers=2, batch_first=True, dropout=0.5)
  )
  (_target_embedder): Embedding()
  (_decoder_cell): LSTMCell(100, 200)
  (_output_projection_layer): Linear(in_features=200, out_features=23, bias=True)
),), Kwargs: {'source_tokens': {'tokens': tensor([[ 4, 21, 11, 12, 17, 18, 15, 11, 12,  5]], device='cuda:0')}, 'target_tokens': {'tokens': tensor([[4, 3, 9, 3, 9, 3, 7, 3, 7, 3, 7, 3, 7, 3, 7, 3, 7, 3, 7, 3, 7, 5]],
       device='cuda:0')}}
2018-10-27 00:49:54,255 - INFO - root - Args: (SimpleSeq2SeqWithMetrics(
  (_source_embedder): BasicTextFieldEmbedder(
    (token_embedder_tokens): Embedding()
  )
  (_encoder): PytorchSeq2SeqWrapper(
    (_module): LSTM(100, 200, num_layers=2, batch_first=True, dropout=0.5)
  )
  (_target_embedder): Embedding()
  (_decoder_cell): LSTMCell(100, 200)
  (_output_projection_layer): Linear(in_features=200, out_features=23, bias=True)
),), Kwargs: {'source_tokens': {'tokens': tensor([[ 4, 20, 11, 16, 18, 14, 10, 12,  5]], device='cuda:0')}, 'target_tokens': {'tokens': tensor([[4, 2, 2, 7, 2, 2, 7, 3, 8, 5]], device='cuda:0')}}
2018-10-27 00:49:54,269 - INFO - root - Args: (SimpleSeq2SeqWithMetrics(
  (_source_embedder): BasicTextFieldEmbedder(
    (token_embedder_tokens): Embedding()
  )
  (_encoder): PytorchSeq2SeqWrapper(
    (_module): LSTM(100, 200, num_layers=2, batch_first=True, dropout=0.5)
  )
  (_target_embedder): Embedding()
  (_decoder_cell): LSTMCell(100, 200)
  (_output_projection_layer): Linear(in_features=200, out_features=23, bias=True)
),), Kwargs: {'source_tokens': {'tokens': tensor([[ 4, 22, 15, 10, 12, 17, 21, 14, 10, 13,  5]], device='cuda:0')}, 'target_tokens': {'tokens': tensor([[4, 2, 2, 2, 2, 2, 2, 2, 2, 2, 2, 9, 2, 2, 9, 2, 2, 9, 5]], device='cuda:0')}}
2018-10-27 00:49:54,289 - INFO - root - Args: (SimpleSeq2SeqWithMetrics(
  (_source_embedder): BasicTextFieldEmbedder(
    (token_embedder_tokens): Embedding()
  )
  (_encoder): PytorchSeq2SeqWrapper(
    (_module): LSTM(100, 200, num_layers=2, batch_first=True, dropout=0.5)
  )
  (_target_embedder): Embedding()
  (_decoder_cell): LSTMCell(100, 200)
  (_output_projection_layer): Linear(in_features=200, out_features=23, bias=True)
),), Kwargs: {'source_tokens': {'tokens': tensor([[ 4, 21, 10, 12, 16, 21, 15, 10,  5]], device='cuda:0')}, 'target_tokens': {'tokens': tensor([[4, 2, 9, 2, 9, 2, 9, 2, 9, 2, 9, 2, 9, 5]], device='cuda:0')}}
2018-10-27 00:49:54,307 - INFO - root - Args: (SimpleSeq2SeqWithMetrics(
  (_source_embedder): BasicTextFieldEmbedder(
    (token_embedder_tokens): Embedding()
  )
  (_encoder): PytorchSeq2SeqWrapper(
    (_module): LSTM(100, 200, num_layers=2, batch_first=True, dropout=0.5)
  )
  (_target_embedder): Embedding()
  (_decoder_cell): LSTMCell(100, 200)
  (_output_projection_layer): Linear(in_features=200, out_features=23, bias=True)
),), Kwargs: {'source_tokens': {'tokens': tensor([[ 4, 21, 10, 17, 20, 15, 10, 13,  5]], device='cuda:0')}, 'target_tokens': {'tokens': tensor([[4, 2, 9, 2, 8, 2, 8, 2, 8, 2, 8, 2, 8, 2, 8, 2, 8, 2, 8, 2, 8, 2, 8, 2,
         8, 2, 8, 5]], device='cuda:0')}}
2018-10-27 00:49:54,334 - INFO - root - Args: (SimpleSeq2SeqWithMetrics(
  (_source_embedder): BasicTextFieldEmbedder(
    (token_embedder_tokens): Embedding()
  )
  (_encoder): PytorchSeq2SeqWrapper(
    (_module): LSTM(100, 200, num_layers=2, batch_first=True, dropout=0.5)
  )
  (_target_embedder): Embedding()
  (_decoder_cell): LSTMCell(100, 200)
  (_output_projection_layer): Linear(in_features=200, out_features=23, bias=True)
),), Kwargs: {'source_tokens': {'tokens': tensor([[ 4, 18, 14, 10, 12, 16, 20, 14, 11,  5]], device='cuda:0')}, 'target_tokens': {'tokens': tensor([[4, 3, 3, 8, 2, 2, 7, 2, 2, 7, 5]], device='cuda:0')}}
2018-10-27 00:49:54,349 - INFO - root - Args: (SimpleSeq2SeqWithMetrics(
  (_source_embedder): BasicTextFieldEmbedder(
    (token_embedder_tokens): Embedding()
  )
  (_encoder): PytorchSeq2SeqWrapper(
    (_module): LSTM(100, 200, num_layers=2, batch_first=True, dropout=0.5)
  )
  (_target_embedder): Embedding()
  (_decoder_cell): LSTMCell(100, 200)
  (_output_projection_layer): Linear(in_features=200, out_features=23, bias=True)
),), Kwargs: {'source_tokens': {'tokens': tensor([[ 4, 18, 14, 11, 17, 18, 11,  5]], device='cuda:0')}, 'target_tokens': {'tokens': tensor([[4, 3, 3, 7, 3, 7, 5]], device='cuda:0')}}
2018-10-27 00:49:54,362 - INFO - root - Args: (SimpleSeq2SeqWithMetrics(
  (_source_embedder): BasicTextFieldEmbedder(
    (token_embedder_tokens): Embedding()
  )
  (_encoder): PytorchSeq2SeqWrapper(
    (_module): LSTM(100, 200, num_layers=2, batch_first=True, dropout=0.5)
  )
  (_target_embedder): Embedding()
  (_decoder_cell): LSTMCell(100, 200)
  (_output_projection_layer): Linear(in_features=200, out_features=23, bias=True)
),), Kwargs: {'source_tokens': {'tokens': tensor([[ 4, 19, 12, 16, 20, 10, 13,  5]], device='cuda:0')}, 'target_tokens': {'tokens': tensor([[4, 2, 8, 2, 8, 2, 8, 6, 6, 5]], device='cuda:0')}}
2018-10-27 00:49:54,376 - INFO - root - Args: (SimpleSeq2SeqWithMetrics(
  (_source_embedder): BasicTextFieldEmbedder(
    (token_embedder_tokens): Embedding()
  )
  (_encoder): PytorchSeq2SeqWrapper(
    (_module): LSTM(100, 200, num_layers=2, batch_first=True, dropout=0.5)
  )
  (_target_embedder): Embedding()
  (_decoder_cell): LSTMCell(100, 200)
  (_output_projection_layer): Linear(in_features=200, out_features=23, bias=True)
),), Kwargs: {'source_tokens': {'tokens': tensor([[ 4, 19, 15, 11, 16, 21, 11, 12,  5]], device='cuda:0')}, 'target_tokens': {'tokens': tensor([[4, 3, 9, 3, 9, 3, 6, 3, 6, 3, 6, 3, 6, 5]], device='cuda:0')}}
2018-10-27 00:49:54,396 - INFO - root - Args: (SimpleSeq2SeqWithMetrics(
  (_source_embedder): BasicTextFieldEmbedder(
    (token_embedder_tokens): Embedding()
  )
  (_encoder): PytorchSeq2SeqWrapper(
    (_module): LSTM(100, 200, num_layers=2, batch_first=True, dropout=0.5)
  )
  (_target_embedder): Embedding()
  (_decoder_cell): LSTMCell(100, 200)
  (_output_projection_layer): Linear(in_features=200, out_features=23, bias=True)
),), Kwargs: {'source_tokens': {'tokens': tensor([[ 4, 22, 14, 10, 13, 16, 18, 14, 10,  5]], device='cuda:0')}, 'target_tokens': {'tokens': tensor([[4, 2, 2, 7, 2, 2, 2, 2, 2, 2, 5]], device='cuda:0')}}
2018-10-27 00:49:54,413 - INFO - root - Args: (SimpleSeq2SeqWithMetrics(
  (_source_embedder): BasicTextFieldEmbedder(
    (token_embedder_tokens): Embedding()
  )
  (_encoder): PytorchSeq2SeqWrapper(
    (_module): LSTM(100, 200, num_layers=2, batch_first=True, dropout=0.5)
  )
  (_target_embedder): Embedding()
  (_decoder_cell): LSTMCell(100, 200)
  (_output_projection_layer): Linear(in_features=200, out_features=23, bias=True)
),), Kwargs: {'source_tokens': {'tokens': tensor([[ 4, 18, 15, 10, 12, 16, 18, 14, 11,  5]], device='cuda:0')}, 'target_tokens': {'tokens': tensor([[4, 3, 3, 7, 2, 7, 2, 7, 2, 7, 2, 7, 2, 7, 2, 7, 2, 7, 2, 7, 5]],
       device='cuda:0')}}
2018-10-27 00:49:54,435 - INFO - root - Args: (SimpleSeq2SeqWithMetrics(
  (_source_embedder): BasicTextFieldEmbedder(
    (token_embedder_tokens): Embedding()
  )
  (_encoder): PytorchSeq2SeqWrapper(
    (_module): LSTM(100, 200, num_layers=2, batch_first=True, dropout=0.5)
  )
  (_target_embedder): Embedding()
  (_decoder_cell): LSTMCell(100, 200)
  (_output_projection_layer): Linear(in_features=200, out_features=23, bias=True)
),), Kwargs: {'source_tokens': {'tokens': tensor([[ 4, 20, 15, 10, 17, 20, 14, 11,  5]], device='cuda:0')}, 'target_tokens': {'tokens': tensor([[4, 2, 8, 2, 8, 2, 8, 2, 8, 3, 3, 8, 5]], device='cuda:0')}}
2018-10-27 00:49:54,454 - INFO - root - Args: (SimpleSeq2SeqWithMetrics(
  (_source_embedder): BasicTextFieldEmbedder(
    (token_embedder_tokens): Embedding()
  )
  (_encoder): PytorchSeq2SeqWrapper(
    (_module): LSTM(100, 200, num_layers=2, batch_first=True, dropout=0.5)
  )
  (_target_embedder): Embedding()
  (_decoder_cell): LSTMCell(100, 200)
  (_output_projection_layer): Linear(in_features=200, out_features=23, bias=True)
),), Kwargs: {'source_tokens': {'tokens': tensor([[ 4, 21, 14, 10, 17, 22, 15, 11, 13,  5]], device='cuda:0')}, 'target_tokens': {'tokens': tensor([[4, 2, 2, 9, 3, 3, 3, 3, 3, 3, 3, 3, 3, 3, 3, 3, 5]], device='cuda:0')}}
2018-10-27 00:49:54,474 - INFO - root - Args: (SimpleSeq2SeqWithMetrics(
  (_source_embedder): BasicTextFieldEmbedder(
    (token_embedder_tokens): Embedding()
  )
  (_encoder): PytorchSeq2SeqWrapper(
    (_module): LSTM(100, 200, num_layers=2, batch_first=True, dropout=0.5)
  )
  (_target_embedder): Embedding()
  (_decoder_cell): LSTMCell(100, 200)
  (_output_projection_layer): Linear(in_features=200, out_features=23, bias=True)
),), Kwargs: {'source_tokens': {'tokens': tensor([[ 4, 21, 14, 11, 13, 17, 18, 14, 10, 12,  5]], device='cuda:0')}, 'target_tokens': {'tokens': tensor([[4, 3, 3, 9, 3, 3, 9, 3, 3, 9, 2, 2, 7, 2, 2, 7, 5]], device='cuda:0')}}
2018-10-27 00:49:54,494 - INFO - root - Args: (SimpleSeq2SeqWithMetrics(
  (_source_embedder): BasicTextFieldEmbedder(
    (token_embedder_tokens): Embedding()
  )
  (_encoder): PytorchSeq2SeqWrapper(
    (_module): LSTM(100, 200, num_layers=2, batch_first=True, dropout=0.5)
  )
  (_target_embedder): Embedding()
  (_decoder_cell): LSTMCell(100, 200)
  (_output_projection_layer): Linear(in_features=200, out_features=23, bias=True)
),), Kwargs: {'source_tokens': {'tokens': tensor([[ 4, 20, 14, 10, 13, 16, 18, 14, 11, 13,  5]], device='cuda:0')}, 'target_tokens': {'tokens': tensor([[4, 3, 3, 7, 3, 3, 7, 3, 3, 7, 2, 2, 8, 2, 2, 8, 2, 2, 8, 5]],
       device='cuda:0')}}
2018-10-27 00:49:54,519 - INFO - root - Args: (SimpleSeq2SeqWithMetrics(
  (_source_embedder): BasicTextFieldEmbedder(
    (token_embedder_tokens): Embedding()
  )
  (_encoder): PytorchSeq2SeqWrapper(
    (_module): LSTM(100, 200, num_layers=2, batch_first=True, dropout=0.5)
  )
  (_target_embedder): Embedding()
  (_decoder_cell): LSTMCell(100, 200)
  (_output_projection_layer): Linear(in_features=200, out_features=23, bias=True)
),), Kwargs: {'source_tokens': {'tokens': tensor([[ 4, 19, 15, 11, 12, 16, 20, 11,  5]], device='cuda:0')}, 'target_tokens': {'tokens': tensor([[4, 3, 8, 3, 6, 3, 6, 3, 6, 3, 6, 3, 6, 3, 6, 3, 6, 3, 6, 5]],
       device='cuda:0')}}
2018-10-27 00:49:54,544 - INFO - root - Args: (SimpleSeq2SeqWithMetrics(
  (_source_embedder): BasicTextFieldEmbedder(
    (token_embedder_tokens): Embedding()
  )
  (_encoder): PytorchSeq2SeqWrapper(
    (_module): LSTM(100, 200, num_layers=2, batch_first=True, dropout=0.5)
  )
  (_target_embedder): Embedding()
  (_decoder_cell): LSTMCell(100, 200)
  (_output_projection_layer): Linear(in_features=200, out_features=23, bias=True)
),), Kwargs: {'source_tokens': {'tokens': tensor([[ 4, 21, 10, 12, 17, 18, 14, 10, 13,  5]], device='cuda:0')}, 'target_tokens': {'tokens': tensor([[4, 2, 9, 2, 9, 2, 2, 7, 2, 2, 7, 2, 2, 7, 5]], device='cuda:0')}}
2018-10-27 00:49:54,563 - INFO - root - Args: (SimpleSeq2SeqWithMetrics(
  (_source_embedder): BasicTextFieldEmbedder(
    (token_embedder_tokens): Embedding()
  )
  (_encoder): PytorchSeq2SeqWrapper(
    (_module): LSTM(100, 200, num_layers=2, batch_first=True, dropout=0.5)
  )
  (_target_embedder): Embedding()
  (_decoder_cell): LSTMCell(100, 200)
  (_output_projection_layer): Linear(in_features=200, out_features=23, bias=True)
),), Kwargs: {'source_tokens': {'tokens': tensor([[ 4, 18, 15, 10, 13, 16, 18,  5]], device='cuda:0')}, 'target_tokens': {'tokens': tensor([[4, 7, 2, 7, 2, 7, 2, 7, 2, 7, 2, 7, 2, 7, 2, 7, 2, 7, 2, 7, 2, 7, 2, 7,
         2, 7, 5]], device='cuda:0')}}
2018-10-27 00:49:54,591 - INFO - root - Args: (SimpleSeq2SeqWithMetrics(
  (_source_embedder): BasicTextFieldEmbedder(
    (token_embedder_tokens): Embedding()
  )
  (_encoder): PytorchSeq2SeqWrapper(
    (_module): LSTM(100, 200, num_layers=2, batch_first=True, dropout=0.5)
  )
  (_target_embedder): Embedding()
  (_decoder_cell): LSTMCell(100, 200)
  (_output_projection_layer): Linear(in_features=200, out_features=23, bias=True)
),), Kwargs: {'source_tokens': {'tokens': tensor([[ 4, 22, 14, 10, 16, 20, 15, 10, 13,  5]], device='cuda:0')}, 'target_tokens': {'tokens': tensor([[4, 2, 8, 2, 8, 2, 8, 2, 8, 2, 8, 2, 8, 2, 8, 2, 8, 2, 8, 2, 8, 2, 8, 2,
         8, 2, 2, 5]], device='cuda:0')}}
2018-10-27 00:49:54,624 - INFO - root - Args: (SimpleSeq2SeqWithMetrics(
  (_source_embedder): BasicTextFieldEmbedder(
    (token_embedder_tokens): Embedding()
  )
  (_encoder): PytorchSeq2SeqWrapper(
    (_module): LSTM(100, 200, num_layers=2, batch_first=True, dropout=0.5)
  )
  (_target_embedder): Embedding()
  (_decoder_cell): LSTMCell(100, 200)
  (_output_projection_layer): Linear(in_features=200, out_features=23, bias=True)
),), Kwargs: {'source_tokens': {'tokens': tensor([[ 4, 21, 15, 11, 12, 17, 18, 11, 13,  5]], device='cuda:0')}, 'target_tokens': {'tokens': tensor([[4, 3, 9, 3, 9, 3, 9, 3, 9, 3, 9, 3, 9, 3, 9, 3, 9, 3, 7, 3, 7, 3, 7, 5]],
       device='cuda:0')}}
2018-10-27 00:49:54,651 - INFO - root - Args: (SimpleSeq2SeqWithMetrics(
  (_source_embedder): BasicTextFieldEmbedder(
    (token_embedder_tokens): Embedding()
  )
  (_encoder): PytorchSeq2SeqWrapper(
    (_module): LSTM(100, 200, num_layers=2, batch_first=True, dropout=0.5)
  )
  (_target_embedder): Embedding()
  (_decoder_cell): LSTMCell(100, 200)
  (_output_projection_layer): Linear(in_features=200, out_features=23, bias=True)
),), Kwargs: {'source_tokens': {'tokens': tensor([[ 4, 19, 17, 19, 11, 12,  5]], device='cuda:0')}, 'target_tokens': {'tokens': tensor([[4, 6, 3, 6, 3, 6, 5]], device='cuda:0')}}
2018-10-27 00:49:54,666 - INFO - root - Args: (SimpleSeq2SeqWithMetrics(
  (_source_embedder): BasicTextFieldEmbedder(
    (token_embedder_tokens): Embedding()
  )
  (_encoder): PytorchSeq2SeqWrapper(
    (_module): LSTM(100, 200, num_layers=2, batch_first=True, dropout=0.5)
  )
  (_target_embedder): Embedding()
  (_decoder_cell): LSTMCell(100, 200)
  (_output_projection_layer): Linear(in_features=200, out_features=23, bias=True)
),), Kwargs: {'source_tokens': {'tokens': tensor([[ 4, 20, 11, 12, 16, 21, 12,  5]], device='cuda:0')}, 'target_tokens': {'tokens': tensor([[4, 9, 9, 3, 8, 3, 8, 5]], device='cuda:0')}}
2018-10-27 00:49:54,681 - INFO - root - Args: (SimpleSeq2SeqWithMetrics(
  (_source_embedder): BasicTextFieldEmbedder(
    (token_embedder_tokens): Embedding()
  )
  (_encoder): PytorchSeq2SeqWrapper(
    (_module): LSTM(100, 200, num_layers=2, batch_first=True, dropout=0.5)
  )
  (_target_embedder): Embedding()
  (_decoder_cell): LSTMCell(100, 200)
  (_output_projection_layer): Linear(in_features=200, out_features=23, bias=True)
),), Kwargs: {'source_tokens': {'tokens': tensor([[ 4, 21, 12, 16, 22, 14, 11, 13,  5]], device='cuda:0')}, 'target_tokens': {'tokens': tensor([[4, 3, 3, 3, 3, 3, 3, 9, 9, 5]], device='cuda:0')}}
2018-10-27 00:49:54,699 - INFO - root - Args: (SimpleSeq2SeqWithMetrics(
  (_source_embedder): BasicTextFieldEmbedder(
    (token_embedder_tokens): Embedding()
  )
  (_encoder): PytorchSeq2SeqWrapper(
    (_module): LSTM(100, 200, num_layers=2, batch_first=True, dropout=0.5)
  )
  (_target_embedder): Embedding()
  (_decoder_cell): LSTMCell(100, 200)
  (_output_projection_layer): Linear(in_features=200, out_features=23, bias=True)
),), Kwargs: {'source_tokens': {'tokens': tensor([[ 4, 20, 15, 11, 17, 21, 14, 11, 13,  5]], device='cuda:0')}, 'target_tokens': {'tokens': tensor([[4, 3, 8, 3, 8, 3, 8, 3, 8, 3, 3, 9, 3, 3, 9, 3, 3, 9, 5]], device='cuda:0')}}
2018-10-27 00:49:54,722 - INFO - root - Args: (SimpleSeq2SeqWithMetrics(
  (_source_embedder): BasicTextFieldEmbedder(
    (token_embedder_tokens): Embedding()
  )
  (_encoder): PytorchSeq2SeqWrapper(
    (_module): LSTM(100, 200, num_layers=2, batch_first=True, dropout=0.5)
  )
  (_target_embedder): Embedding()
  (_decoder_cell): LSTMCell(100, 200)
  (_output_projection_layer): Linear(in_features=200, out_features=23, bias=True)
),), Kwargs: {'source_tokens': {'tokens': tensor([[ 4, 22, 14, 10, 13, 17, 19, 11, 12,  5]], device='cuda:0')}, 'target_tokens': {'tokens': tensor([[4, 2, 2, 2, 2, 2, 2, 3, 6, 3, 6, 5]], device='cuda:0')}}
2018-10-27 00:49:54,741 - INFO - root - Args: (SimpleSeq2SeqWithMetrics(
  (_source_embedder): BasicTextFieldEmbedder(
    (token_embedder_tokens): Embedding()
  )
  (_encoder): PytorchSeq2SeqWrapper(
    (_module): LSTM(100, 200, num_layers=2, batch_first=True, dropout=0.5)
  )
  (_target_embedder): Embedding()
  (_decoder_cell): LSTMCell(100, 200)
  (_output_projection_layer): Linear(in_features=200, out_features=23, bias=True)
),), Kwargs: {'source_tokens': {'tokens': tensor([[ 4, 22, 11, 17, 20, 15, 11,  5]], device='cuda:0')}, 'target_tokens': {'tokens': tensor([[4, 3, 3, 8, 3, 8, 3, 8, 3, 8, 5]], device='cuda:0')}}
2018-10-27 00:49:54,759 - INFO - root - Args: (SimpleSeq2SeqWithMetrics(
  (_source_embedder): BasicTextFieldEmbedder(
    (token_embedder_tokens): Embedding()
  )
  (_encoder): PytorchSeq2SeqWrapper(
    (_module): LSTM(100, 200, num_layers=2, batch_first=True, dropout=0.5)
  )
  (_target_embedder): Embedding()
  (_decoder_cell): LSTMCell(100, 200)
  (_output_projection_layer): Linear(in_features=200, out_features=23, bias=True)
),), Kwargs: {'source_tokens': {'tokens': tensor([[ 4, 19, 11, 17, 18, 11, 13,  5]], device='cuda:0')}, 'target_tokens': {'tokens': tensor([[4, 3, 6, 3, 7, 3, 7, 3, 7, 5]], device='cuda:0')}}
2018-10-27 00:49:54,778 - INFO - root - Args: (SimpleSeq2SeqWithMetrics(
  (_source_embedder): BasicTextFieldEmbedder(
    (token_embedder_tokens): Embedding()
  )
  (_encoder): PytorchSeq2SeqWrapper(
    (_module): LSTM(100, 200, num_layers=2, batch_first=True, dropout=0.5)
  )
  (_target_embedder): Embedding()
  (_decoder_cell): LSTMCell(100, 200)
  (_output_projection_layer): Linear(in_features=200, out_features=23, bias=True)
),), Kwargs: {'source_tokens': {'tokens': tensor([[ 4, 20, 11, 17, 22, 15, 11,  5]], device='cuda:0')}, 'target_tokens': {'tokens': tensor([[4, 3, 8, 3, 3, 3, 3, 5]], device='cuda:0')}}
2018-10-27 00:49:54,797 - INFO - root - Args: (SimpleSeq2SeqWithMetrics(
  (_source_embedder): BasicTextFieldEmbedder(
    (token_embedder_tokens): Embedding()
  )
  (_encoder): PytorchSeq2SeqWrapper(
    (_module): LSTM(100, 200, num_layers=2, batch_first=True, dropout=0.5)
  )
  (_target_embedder): Embedding()
  (_decoder_cell): LSTMCell(100, 200)
  (_output_projection_layer): Linear(in_features=200, out_features=23, bias=True)
),), Kwargs: {'source_tokens': {'tokens': tensor([[ 4, 22, 14, 10, 13, 17, 18, 11,  5]], device='cuda:0')}, 'target_tokens': {'tokens': tensor([[4, 2, 2, 2, 2, 2, 2, 3, 7, 5]], device='cuda:0')}}
2018-10-27 00:49:54,819 - INFO - root - Args: (SimpleSeq2SeqWithMetrics(
  (_source_embedder): BasicTextFieldEmbedder(
    (token_embedder_tokens): Embedding()
  )
  (_encoder): PytorchSeq2SeqWrapper(
    (_module): LSTM(100, 200, num_layers=2, batch_first=True, dropout=0.5)
  )
  (_target_embedder): Embedding()
  (_decoder_cell): LSTMCell(100, 200)
  (_output_projection_layer): Linear(in_features=200, out_features=23, bias=True)
),), Kwargs: {'source_tokens': {'tokens': tensor([[ 4, 20, 11, 13, 16, 18, 13,  5]], device='cuda:0')}, 'target_tokens': {'tokens': tensor([[4, 7, 7, 7, 3, 8, 3, 8, 3, 8, 5]], device='cuda:0')}}
2018-10-27 00:49:54,842 - INFO - root - Args: (SimpleSeq2SeqWithMetrics(
  (_source_embedder): BasicTextFieldEmbedder(
    (token_embedder_tokens): Embedding()
  )
  (_encoder): PytorchSeq2SeqWrapper(
    (_module): LSTM(100, 200, num_layers=2, batch_first=True, dropout=0.5)
  )
  (_target_embedder): Embedding()
  (_decoder_cell): LSTMCell(100, 200)
  (_output_projection_layer): Linear(in_features=200, out_features=23, bias=True)
),), Kwargs: {'source_tokens': {'tokens': tensor([[ 4, 19, 15, 10, 17, 19, 10, 12,  5]], device='cuda:0')}, 'target_tokens': {'tokens': tensor([[4, 2, 6, 2, 6, 2, 6, 2, 6, 2, 6, 2, 6, 5]], device='cuda:0')}}
2018-10-27 00:49:54,863 - INFO - root - Args: (SimpleSeq2SeqWithMetrics(
  (_source_embedder): BasicTextFieldEmbedder(
    (token_embedder_tokens): Embedding()
  )
  (_encoder): PytorchSeq2SeqWrapper(
    (_module): LSTM(100, 200, num_layers=2, batch_first=True, dropout=0.5)
  )
  (_target_embedder): Embedding()
  (_decoder_cell): LSTMCell(100, 200)
  (_output_projection_layer): Linear(in_features=200, out_features=23, bias=True)
),), Kwargs: {'source_tokens': {'tokens': tensor([[ 4, 19, 12, 17, 18, 15, 11,  5]], device='cuda:0')}, 'target_tokens': {'tokens': tensor([[4, 6, 6, 3, 7, 3, 7, 3, 7, 3, 7, 5]], device='cuda:0')}}
2018-10-27 00:49:54,883 - INFO - root - Args: (SimpleSeq2SeqWithMetrics(
  (_source_embedder): BasicTextFieldEmbedder(
    (token_embedder_tokens): Embedding()
  )
  (_encoder): PytorchSeq2SeqWrapper(
    (_module): LSTM(100, 200, num_layers=2, batch_first=True, dropout=0.5)
  )
  (_target_embedder): Embedding()
  (_decoder_cell): LSTMCell(100, 200)
  (_output_projection_layer): Linear(in_features=200, out_features=23, bias=True)
),), Kwargs: {'source_tokens': {'tokens': tensor([[ 4, 20, 15, 11, 13, 17, 21, 12,  5]], device='cuda:0')}, 'target_tokens': {'tokens': tensor([[4, 3, 8, 3, 8, 3, 8, 3, 8, 3, 8, 3, 8, 3, 8, 3, 8, 3, 8, 3, 8, 3, 8, 3,
         8, 9, 9, 5]], device='cuda:0')}}
2018-10-27 00:49:54,916 - INFO - root - Args: (SimpleSeq2SeqWithMetrics(
  (_source_embedder): BasicTextFieldEmbedder(
    (token_embedder_tokens): Embedding()
  )
  (_encoder): PytorchSeq2SeqWrapper(
    (_module): LSTM(100, 200, num_layers=2, batch_first=True, dropout=0.5)
  )
  (_target_embedder): Embedding()
  (_decoder_cell): LSTMCell(100, 200)
  (_output_projection_layer): Linear(in_features=200, out_features=23, bias=True)
),), Kwargs: {'source_tokens': {'tokens': tensor([[ 4, 20, 15, 11, 12, 16, 19, 15, 11, 13,  5]], device='cuda:0')}, 'target_tokens': {'tokens': tensor([[4, 3, 6, 3, 6, 3, 6, 3, 6, 3, 6, 3, 6, 3, 6, 3, 6, 3, 6, 3, 6, 3, 6, 3,
         6, 3, 8, 3, 8, 3, 8, 3, 8, 3, 8, 3, 8, 3, 8, 3, 8, 5]],
       device='cuda:0')}}
2018-10-27 00:49:54,965 - INFO - root - Args: (SimpleSeq2SeqWithMetrics(
  (_source_embedder): BasicTextFieldEmbedder(
    (token_embedder_tokens): Embedding()
  )
  (_encoder): PytorchSeq2SeqWrapper(
    (_module): LSTM(100, 200, num_layers=2, batch_first=True, dropout=0.5)
  )
  (_target_embedder): Embedding()
  (_decoder_cell): LSTMCell(100, 200)
  (_output_projection_layer): Linear(in_features=200, out_features=23, bias=True)
),), Kwargs: {'source_tokens': {'tokens': tensor([[ 4, 22, 14, 11, 17, 20, 11, 13,  5]], device='cuda:0')}, 'target_tokens': {'tokens': tensor([[4, 3, 3, 3, 8, 3, 8, 3, 8, 5]], device='cuda:0')}}
2018-10-27 00:49:54,982 - INFO - root - Args: (SimpleSeq2SeqWithMetrics(
  (_source_embedder): BasicTextFieldEmbedder(
    (token_embedder_tokens): Embedding()
  )
  (_encoder): PytorchSeq2SeqWrapper(
    (_module): LSTM(100, 200, num_layers=2, batch_first=True, dropout=0.5)
  )
  (_target_embedder): Embedding()
  (_decoder_cell): LSTMCell(100, 200)
  (_output_projection_layer): Linear(in_features=200, out_features=23, bias=True)
),), Kwargs: {'source_tokens': {'tokens': tensor([[ 4, 21, 12, 17, 20, 11,  5]], device='cuda:0')}, 'target_tokens': {'tokens': tensor([[4, 9, 9, 3, 8, 5]], device='cuda:0')}}
2018-10-27 00:49:54,997 - INFO - root - Args: (SimpleSeq2SeqWithMetrics(
  (_source_embedder): BasicTextFieldEmbedder(
    (token_embedder_tokens): Embedding()
  )
  (_encoder): PytorchSeq2SeqWrapper(
    (_module): LSTM(100, 200, num_layers=2, batch_first=True, dropout=0.5)
  )
  (_target_embedder): Embedding()
  (_decoder_cell): LSTMCell(100, 200)
  (_output_projection_layer): Linear(in_features=200, out_features=23, bias=True)
),), Kwargs: {'source_tokens': {'tokens': tensor([[ 4, 18, 15, 11, 12, 16, 19, 14, 11,  5]], device='cuda:0')}, 'target_tokens': {'tokens': tensor([[4, 3, 3, 6, 3, 7, 3, 7, 3, 7, 3, 7, 3, 7, 3, 7, 3, 7, 3, 7, 5]],
       device='cuda:0')}}
2018-10-27 00:49:55,022 - INFO - root - Args: (SimpleSeq2SeqWithMetrics(
  (_source_embedder): BasicTextFieldEmbedder(
    (token_embedder_tokens): Embedding()
  )
  (_encoder): PytorchSeq2SeqWrapper(
    (_module): LSTM(100, 200, num_layers=2, batch_first=True, dropout=0.5)
  )
  (_target_embedder): Embedding()
  (_decoder_cell): LSTMCell(100, 200)
  (_output_projection_layer): Linear(in_features=200, out_features=23, bias=True)
),), Kwargs: {'source_tokens': {'tokens': tensor([[ 4, 21, 14, 11, 12, 16, 21, 10, 13,  5]], device='cuda:0')}, 'target_tokens': {'tokens': tensor([[4, 2, 9, 2, 9, 2, 9, 3, 3, 9, 3, 3, 9, 5]], device='cuda:0')}}
2018-10-27 00:49:55,044 - INFO - root - Args: (SimpleSeq2SeqWithMetrics(
  (_source_embedder): BasicTextFieldEmbedder(
    (token_embedder_tokens): Embedding()
  )
  (_encoder): PytorchSeq2SeqWrapper(
    (_module): LSTM(100, 200, num_layers=2, batch_first=True, dropout=0.5)
  )
  (_target_embedder): Embedding()
  (_decoder_cell): LSTMCell(100, 200)
  (_output_projection_layer): Linear(in_features=200, out_features=23, bias=True)
),), Kwargs: {'source_tokens': {'tokens': tensor([[ 4, 21, 10, 17, 22, 15, 10,  5]], device='cuda:0')}, 'target_tokens': {'tokens': tensor([[4, 2, 9, 2, 2, 2, 2, 5]], device='cuda:0')}}
2018-10-27 00:49:55,060 - INFO - root - Args: (SimpleSeq2SeqWithMetrics(
  (_source_embedder): BasicTextFieldEmbedder(
    (token_embedder_tokens): Embedding()
  )
  (_encoder): PytorchSeq2SeqWrapper(
    (_module): LSTM(100, 200, num_layers=2, batch_first=True, dropout=0.5)
  )
  (_target_embedder): Embedding()
  (_decoder_cell): LSTMCell(100, 200)
  (_output_projection_layer): Linear(in_features=200, out_features=23, bias=True)
),), Kwargs: {'source_tokens': {'tokens': tensor([[ 4, 21, 10, 16, 18, 10, 13,  5]], device='cuda:0')}, 'target_tokens': {'tokens': tensor([[4, 2, 7, 2, 7, 2, 7, 2, 9, 5]], device='cuda:0')}}
2018-10-27 00:49:55,079 - INFO - root - Args: (SimpleSeq2SeqWithMetrics(
  (_source_embedder): BasicTextFieldEmbedder(
    (token_embedder_tokens): Embedding()
  )
  (_encoder): PytorchSeq2SeqWrapper(
    (_module): LSTM(100, 200, num_layers=2, batch_first=True, dropout=0.5)
  )
  (_target_embedder): Embedding()
  (_decoder_cell): LSTMCell(100, 200)
  (_output_projection_layer): Linear(in_features=200, out_features=23, bias=True)
),), Kwargs: {'source_tokens': {'tokens': tensor([[ 4, 22, 15, 11, 16, 19, 10, 13,  5]], device='cuda:0')}, 'target_tokens': {'tokens': tensor([[4, 2, 6, 2, 6, 2, 6, 3, 3, 3, 3, 5]], device='cuda:0')}}
2018-10-27 00:49:55,108 - INFO - root - Args: (SimpleSeq2SeqWithMetrics(
  (_source_embedder): BasicTextFieldEmbedder(
    (token_embedder_tokens): Embedding()
  )
  (_encoder): PytorchSeq2SeqWrapper(
    (_module): LSTM(100, 200, num_layers=2, batch_first=True, dropout=0.5)
  )
  (_target_embedder): Embedding()
  (_decoder_cell): LSTMCell(100, 200)
  (_output_projection_layer): Linear(in_features=200, out_features=23, bias=True)
),), Kwargs: {'source_tokens': {'tokens': tensor([[ 4, 18, 16, 18, 14, 11, 13,  5]], device='cuda:0')}, 'target_tokens': {'tokens': tensor([[4, 3, 3, 7, 3, 3, 7, 3, 3, 7, 7, 5]], device='cuda:0')}}
2018-10-27 00:49:55,132 - INFO - root - Args: (SimpleSeq2SeqWithMetrics(
  (_source_embedder): BasicTextFieldEmbedder(
    (token_embedder_tokens): Embedding()
  )
  (_encoder): PytorchSeq2SeqWrapper(
    (_module): LSTM(100, 200, num_layers=2, batch_first=True, dropout=0.5)
  )
  (_target_embedder): Embedding()
  (_decoder_cell): LSTMCell(100, 200)
  (_output_projection_layer): Linear(in_features=200, out_features=23, bias=True)
),), Kwargs: {'source_tokens': {'tokens': tensor([[ 4, 21, 11, 16, 19, 14, 10,  5]], device='cuda:0')}, 'target_tokens': {'tokens': tensor([[4, 2, 2, 6, 3, 9, 5]], device='cuda:0')}}
2018-10-27 00:49:55,151 - INFO - root - Args: (SimpleSeq2SeqWithMetrics(
  (_source_embedder): BasicTextFieldEmbedder(
    (token_embedder_tokens): Embedding()
  )
  (_encoder): PytorchSeq2SeqWrapper(
    (_module): LSTM(100, 200, num_layers=2, batch_first=True, dropout=0.5)
  )
  (_target_embedder): Embedding()
  (_decoder_cell): LSTMCell(100, 200)
  (_output_projection_layer): Linear(in_features=200, out_features=23, bias=True)
),), Kwargs: {'source_tokens': {'tokens': tensor([[ 4, 18, 15, 11, 12, 17, 20, 15, 10, 12,  5]], device='cuda:0')}, 'target_tokens': {'tokens': tensor([[4, 3, 7, 3, 7, 3, 7, 3, 7, 3, 7, 3, 7, 3, 7, 3, 7, 2, 8, 2, 8, 2, 8, 2,
         8, 2, 8, 2, 8, 2, 8, 2, 8, 5]], device='cuda:0')}}
2018-10-27 00:49:55,193 - INFO - root - Args: (SimpleSeq2SeqWithMetrics(
  (_source_embedder): BasicTextFieldEmbedder(
    (token_embedder_tokens): Embedding()
  )
  (_encoder): PytorchSeq2SeqWrapper(
    (_module): LSTM(100, 200, num_layers=2, batch_first=True, dropout=0.5)
  )
  (_target_embedder): Embedding()
  (_decoder_cell): LSTMCell(100, 200)
  (_output_projection_layer): Linear(in_features=200, out_features=23, bias=True)
),), Kwargs: {'source_tokens': {'tokens': tensor([[ 4, 22, 14, 10, 12, 17, 19, 15, 11,  5]], device='cuda:0')}, 'target_tokens': {'tokens': tensor([[4, 2, 2, 2, 2, 3, 6, 3, 6, 3, 6, 3, 6, 5]], device='cuda:0')}}
2018-10-27 00:49:55,215 - INFO - root - Args: (SimpleSeq2SeqWithMetrics(
  (_source_embedder): BasicTextFieldEmbedder(
    (token_embedder_tokens): Embedding()
  )
  (_encoder): PytorchSeq2SeqWrapper(
    (_module): LSTM(100, 200, num_layers=2, batch_first=True, dropout=0.5)
  )
  (_target_embedder): Embedding()
  (_decoder_cell): LSTMCell(100, 200)
  (_output_projection_layer): Linear(in_features=200, out_features=23, bias=True)
),), Kwargs: {'source_tokens': {'tokens': tensor([[ 4, 19, 15, 10, 13, 17, 21, 15, 10, 13,  5]], device='cuda:0')}, 'target_tokens': {'tokens': tensor([[4, 2, 6, 2, 6, 2, 6, 2, 6, 2, 6, 2, 6, 2, 6, 2, 6, 2, 6, 2, 6, 2, 6, 2,
         6, 2, 9, 2, 9, 2, 9, 2, 9, 2, 9, 2, 9, 2, 9, 2, 9, 2, 9, 2, 9, 2, 9, 2,
         9, 5]], device='cuda:0')}}
2018-10-27 00:49:55,264 - INFO - root - Args: (SimpleSeq2SeqWithMetrics(
  (_source_embedder): BasicTextFieldEmbedder(
    (token_embedder_tokens): Embedding()
  )
  (_encoder): PytorchSeq2SeqWrapper(
    (_module): LSTM(100, 200, num_layers=2, batch_first=True, dropout=0.5)
  )
  (_target_embedder): Embedding()
  (_decoder_cell): LSTMCell(100, 200)
  (_output_projection_layer): Linear(in_features=200, out_features=23, bias=True)
),), Kwargs: {'source_tokens': {'tokens': tensor([[ 4, 19, 17, 18, 15, 10, 13,  5]], device='cuda:0')}, 'target_tokens': {'tokens': tensor([[4, 6, 2, 7, 2, 7, 2, 7, 2, 7, 2, 7, 2, 7, 2, 7, 2, 7, 2, 7, 2, 7, 2, 7,
         2, 7, 5]], device='cuda:0')}}
2018-10-27 00:49:55,297 - INFO - root - Args: (SimpleSeq2SeqWithMetrics(
  (_source_embedder): BasicTextFieldEmbedder(
    (token_embedder_tokens): Embedding()
  )
  (_encoder): PytorchSeq2SeqWrapper(
    (_module): LSTM(100, 200, num_layers=2, batch_first=True, dropout=0.5)
  )
  (_target_embedder): Embedding()
  (_decoder_cell): LSTMCell(100, 200)
  (_output_projection_layer): Linear(in_features=200, out_features=23, bias=True)
),), Kwargs: {'source_tokens': {'tokens': tensor([[ 4, 22, 14, 10, 12, 17, 21, 11,  5]], device='cuda:0')}, 'target_tokens': {'tokens': tensor([[4, 2, 2, 2, 2, 3, 9, 5]], device='cuda:0')}}
2018-10-27 00:49:55,314 - INFO - root - Args: (SimpleSeq2SeqWithMetrics(
  (_source_embedder): BasicTextFieldEmbedder(
    (token_embedder_tokens): Embedding()
  )
  (_encoder): PytorchSeq2SeqWrapper(
    (_module): LSTM(100, 200, num_layers=2, batch_first=True, dropout=0.5)
  )
  (_target_embedder): Embedding()
  (_decoder_cell): LSTMCell(100, 200)
  (_output_projection_layer): Linear(in_features=200, out_features=23, bias=True)
),), Kwargs: {'source_tokens': {'tokens': tensor([[ 4, 20, 15, 11, 13, 16, 19, 13,  5]], device='cuda:0')}, 'target_tokens': {'tokens': tensor([[4, 6, 6, 6, 3, 8, 3, 8, 3, 8, 3, 8, 3, 8, 3, 8, 3, 8, 3, 8, 3, 8, 3, 8,
         3, 8, 3, 8, 5]], device='cuda:0')}}
2018-10-27 00:49:55,347 - INFO - root - Args: (SimpleSeq2SeqWithMetrics(
  (_source_embedder): BasicTextFieldEmbedder(
    (token_embedder_tokens): Embedding()
  )
  (_encoder): PytorchSeq2SeqWrapper(
    (_module): LSTM(100, 200, num_layers=2, batch_first=True, dropout=0.5)
  )
  (_target_embedder): Embedding()
  (_decoder_cell): LSTMCell(100, 200)
  (_output_projection_layer): Linear(in_features=200, out_features=23, bias=True)
),), Kwargs: {'source_tokens': {'tokens': tensor([[ 4, 19, 15, 11, 12, 16, 21, 10, 12,  5]], device='cuda:0')}, 'target_tokens': {'tokens': tensor([[4, 2, 9, 2, 9, 3, 6, 3, 6, 3, 6, 3, 6, 3, 6, 3, 6, 3, 6, 3, 6, 5]],
       device='cuda:0')}}
2018-10-27 00:49:55,375 - INFO - root - Args: (SimpleSeq2SeqWithMetrics(
  (_source_embedder): BasicTextFieldEmbedder(
    (token_embedder_tokens): Embedding()
  )
  (_encoder): PytorchSeq2SeqWrapper(
    (_module): LSTM(100, 200, num_layers=2, batch_first=True, dropout=0.5)
  )
  (_target_embedder): Embedding()
  (_decoder_cell): LSTMCell(100, 200)
  (_output_projection_layer): Linear(in_features=200, out_features=23, bias=True)
),), Kwargs: {'source_tokens': {'tokens': tensor([[ 4, 21, 15, 10, 12, 16, 18, 15, 11, 13,  5]], device='cuda:0')}, 'target_tokens': {'tokens': tensor([[4, 3, 7, 3, 7, 3, 7, 3, 7, 3, 7, 3, 7, 3, 7, 3, 7, 3, 7, 3, 7, 3, 7, 3,
         7, 2, 9, 2, 9, 2, 9, 2, 9, 2, 9, 2, 9, 2, 9, 2, 9, 5]],
       device='cuda:0')}}
2018-10-27 00:49:55,420 - INFO - root - Args: (SimpleSeq2SeqWithMetrics(
  (_source_embedder): BasicTextFieldEmbedder(
    (token_embedder_tokens): Embedding()
  )
  (_encoder): PytorchSeq2SeqWrapper(
    (_module): LSTM(100, 200, num_layers=2, batch_first=True, dropout=0.5)
  )
  (_target_embedder): Embedding()
  (_decoder_cell): LSTMCell(100, 200)
  (_output_projection_layer): Linear(in_features=200, out_features=23, bias=True)
),), Kwargs: {'source_tokens': {'tokens': tensor([[ 4, 21, 15, 10, 12, 17, 20, 10, 13,  5]], device='cuda:0')}, 'target_tokens': {'tokens': tensor([[4, 2, 9, 2, 9, 2, 9, 2, 9, 2, 9, 2, 9, 2, 9, 2, 9, 2, 8, 2, 8, 2, 8, 5]],
       device='cuda:0')}}
2018-10-27 00:49:55,463 - INFO - root - Args: (SimpleSeq2SeqWithMetrics(
  (_source_embedder): BasicTextFieldEmbedder(
    (token_embedder_tokens): Embedding()
  )
  (_encoder): PytorchSeq2SeqWrapper(
    (_module): LSTM(100, 200, num_layers=2, batch_first=True, dropout=0.5)
  )
  (_target_embedder): Embedding()
  (_decoder_cell): LSTMCell(100, 200)
  (_output_projection_layer): Linear(in_features=200, out_features=23, bias=True)
),), Kwargs: {'source_tokens': {'tokens': tensor([[ 4, 22, 11, 12, 17, 22, 14, 11,  5]], device='cuda:0')}, 'target_tokens': {'tokens': tensor([[4, 3, 3, 3, 3, 5]], device='cuda:0')}}
2018-10-27 00:49:55,484 - INFO - root - Args: (SimpleSeq2SeqWithMetrics(
  (_source_embedder): BasicTextFieldEmbedder(
    (token_embedder_tokens): Embedding()
  )
  (_encoder): PytorchSeq2SeqWrapper(
    (_module): LSTM(100, 200, num_layers=2, batch_first=True, dropout=0.5)
  )
  (_target_embedder): Embedding()
  (_decoder_cell): LSTMCell(100, 200)
  (_output_projection_layer): Linear(in_features=200, out_features=23, bias=True)
),), Kwargs: {'source_tokens': {'tokens': tensor([[ 4, 21, 12, 16, 18, 12,  5]], device='cuda:0')}, 'target_tokens': {'tokens': tensor([[4, 7, 7, 9, 9, 5]], device='cuda:0')}}
2018-10-27 00:49:55,502 - INFO - root - Args: (SimpleSeq2SeqWithMetrics(
  (_source_embedder): BasicTextFieldEmbedder(
    (token_embedder_tokens): Embedding()
  )
  (_encoder): PytorchSeq2SeqWrapper(
    (_module): LSTM(100, 200, num_layers=2, batch_first=True, dropout=0.5)
  )
  (_target_embedder): Embedding()
  (_decoder_cell): LSTMCell(100, 200)
  (_output_projection_layer): Linear(in_features=200, out_features=23, bias=True)
),), Kwargs: {'source_tokens': {'tokens': tensor([[ 4, 19, 15, 11, 12, 16, 18, 14, 10,  5]], device='cuda:0')}, 'target_tokens': {'tokens': tensor([[4, 2, 2, 7, 3, 6, 3, 6, 3, 6, 3, 6, 3, 6, 3, 6, 3, 6, 3, 6, 5]],
       device='cuda:0')}}
2018-10-27 00:49:55,536 - INFO - root - Args: (SimpleSeq2SeqWithMetrics(
  (_source_embedder): BasicTextFieldEmbedder(
    (token_embedder_tokens): Embedding()
  )
  (_encoder): PytorchSeq2SeqWrapper(
    (_module): LSTM(100, 200, num_layers=2, batch_first=True, dropout=0.5)
  )
  (_target_embedder): Embedding()
  (_decoder_cell): LSTMCell(100, 200)
  (_output_projection_layer): Linear(in_features=200, out_features=23, bias=True)
),), Kwargs: {'source_tokens': {'tokens': tensor([[ 4, 19, 14, 11, 16, 21, 14, 11, 12,  5]], device='cuda:0')}, 'target_tokens': {'tokens': tensor([[4, 3, 3, 9, 3, 3, 9, 3, 3, 6, 5]], device='cuda:0')}}
2018-10-27 00:49:55,559 - INFO - root - Args: (SimpleSeq2SeqWithMetrics(
  (_source_embedder): BasicTextFieldEmbedder(
    (token_embedder_tokens): Embedding()
  )
  (_encoder): PytorchSeq2SeqWrapper(
    (_module): LSTM(100, 200, num_layers=2, batch_first=True, dropout=0.5)
  )
  (_target_embedder): Embedding()
  (_decoder_cell): LSTMCell(100, 200)
  (_output_projection_layer): Linear(in_features=200, out_features=23, bias=True)
),), Kwargs: {'source_tokens': {'tokens': tensor([[ 4, 19, 14, 11, 12, 16, 18, 14, 10, 12,  5]], device='cuda:0')}, 'target_tokens': {'tokens': tensor([[4, 2, 2, 7, 2, 2, 7, 3, 3, 6, 3, 3, 6, 5]], device='cuda:0')}}
2018-10-27 00:49:55,579 - INFO - root - Args: (SimpleSeq2SeqWithMetrics(
  (_source_embedder): BasicTextFieldEmbedder(
    (token_embedder_tokens): Embedding()
  )
  (_encoder): PytorchSeq2SeqWrapper(
    (_module): LSTM(100, 200, num_layers=2, batch_first=True, dropout=0.5)
  )
  (_target_embedder): Embedding()
  (_decoder_cell): LSTMCell(100, 200)
  (_output_projection_layer): Linear(in_features=200, out_features=23, bias=True)
),), Kwargs: {'source_tokens': {'tokens': tensor([[ 4, 19, 14, 11, 17, 22, 14, 10, 12,  5]], device='cuda:0')}, 'target_tokens': {'tokens': tensor([[4, 3, 3, 6, 2, 2, 2, 2, 5]], device='cuda:0')}}
2018-10-27 00:49:55,598 - INFO - root - Args: (SimpleSeq2SeqWithMetrics(
  (_source_embedder): BasicTextFieldEmbedder(
    (token_embedder_tokens): Embedding()
  )
  (_encoder): PytorchSeq2SeqWrapper(
    (_module): LSTM(100, 200, num_layers=2, batch_first=True, dropout=0.5)
  )
  (_target_embedder): Embedding()
  (_decoder_cell): LSTMCell(100, 200)
  (_output_projection_layer): Linear(in_features=200, out_features=23, bias=True)
),), Kwargs: {'source_tokens': {'tokens': tensor([[ 4, 20, 14, 11, 12, 17, 19, 15, 11, 12,  5]], device='cuda:0')}, 'target_tokens': {'tokens': tensor([[4, 3, 3, 8, 3, 3, 8, 3, 6, 3, 6, 3, 6, 3, 6, 3, 6, 3, 6, 3, 6, 3, 6, 5]],
       device='cuda:0')}}
2018-10-27 00:49:55,632 - INFO - root - Args: (SimpleSeq2SeqWithMetrics(
  (_source_embedder): BasicTextFieldEmbedder(
    (token_embedder_tokens): Embedding()
  )
  (_encoder): PytorchSeq2SeqWrapper(
    (_module): LSTM(100, 200, num_layers=2, batch_first=True, dropout=0.5)
  )
  (_target_embedder): Embedding()
  (_decoder_cell): LSTMCell(100, 200)
  (_output_projection_layer): Linear(in_features=200, out_features=23, bias=True)
),), Kwargs: {'source_tokens': {'tokens': tensor([[ 4, 20, 17, 21, 15, 11, 13,  5]], device='cuda:0')}, 'target_tokens': {'tokens': tensor([[4, 8, 3, 9, 3, 9, 3, 9, 3, 9, 3, 9, 3, 9, 3, 9, 3, 9, 3, 9, 3, 9, 3, 9,
         3, 9, 5]], device='cuda:0')}}
2018-10-27 00:49:55,663 - INFO - root - Args: (SimpleSeq2SeqWithMetrics(
  (_source_embedder): BasicTextFieldEmbedder(
    (token_embedder_tokens): Embedding()
  )
  (_encoder): PytorchSeq2SeqWrapper(
    (_module): LSTM(100, 200, num_layers=2, batch_first=True, dropout=0.5)
  )
  (_target_embedder): Embedding()
  (_decoder_cell): LSTMCell(100, 200)
  (_output_projection_layer): Linear(in_features=200, out_features=23, bias=True)
),), Kwargs: {'source_tokens': {'tokens': tensor([[ 4, 19, 10, 13, 17, 22, 14, 11,  5]], device='cuda:0')}, 'target_tokens': {'tokens': tensor([[4, 2, 6, 2, 6, 2, 6, 3, 3, 5]], device='cuda:0')}}
2018-10-27 00:49:55,680 - INFO - root - Args: (SimpleSeq2SeqWithMetrics(
  (_source_embedder): BasicTextFieldEmbedder(
    (token_embedder_tokens): Embedding()
  )
  (_encoder): PytorchSeq2SeqWrapper(
    (_module): LSTM(100, 200, num_layers=2, batch_first=True, dropout=0.5)
  )
  (_target_embedder): Embedding()
  (_decoder_cell): LSTMCell(100, 200)
  (_output_projection_layer): Linear(in_features=200, out_features=23, bias=True)
),), Kwargs: {'source_tokens': {'tokens': tensor([[ 4, 22, 15, 10, 12, 16, 22, 11, 13,  5]], device='cuda:0')}, 'target_tokens': {'tokens': tensor([[4, 3, 3, 3, 2, 2, 2, 2, 2, 2, 2, 2, 5]], device='cuda:0')}}
2018-10-27 00:49:55,707 - INFO - root - Args: (SimpleSeq2SeqWithMetrics(
  (_source_embedder): BasicTextFieldEmbedder(
    (token_embedder_tokens): Embedding()
  )
  (_encoder): PytorchSeq2SeqWrapper(
    (_module): LSTM(100, 200, num_layers=2, batch_first=True, dropout=0.5)
  )
  (_target_embedder): Embedding()
  (_decoder_cell): LSTMCell(100, 200)
  (_output_projection_layer): Linear(in_features=200, out_features=23, bias=True)
),), Kwargs: {'source_tokens': {'tokens': tensor([[ 4, 22, 10, 12, 16, 22, 14, 11,  5]], device='cuda:0')}, 'target_tokens': {'tokens': tensor([[4, 3, 3, 2, 2, 5]], device='cuda:0')}}
2018-10-27 00:49:55,726 - INFO - root - Args: (SimpleSeq2SeqWithMetrics(
  (_source_embedder): BasicTextFieldEmbedder(
    (token_embedder_tokens): Embedding()
  )
  (_encoder): PytorchSeq2SeqWrapper(
    (_module): LSTM(100, 200, num_layers=2, batch_first=True, dropout=0.5)
  )
  (_target_embedder): Embedding()
  (_decoder_cell): LSTMCell(100, 200)
  (_output_projection_layer): Linear(in_features=200, out_features=23, bias=True)
),), Kwargs: {'source_tokens': {'tokens': tensor([[ 4, 21, 16, 20, 13,  5]], device='cuda:0')}, 'target_tokens': {'tokens': tensor([[4, 8, 8, 8, 9, 5]], device='cuda:0')}}
2018-10-27 00:49:55,743 - INFO - root - Args: (SimpleSeq2SeqWithMetrics(
  (_source_embedder): BasicTextFieldEmbedder(
    (token_embedder_tokens): Embedding()
  )
  (_encoder): PytorchSeq2SeqWrapper(
    (_module): LSTM(100, 200, num_layers=2, batch_first=True, dropout=0.5)
  )
  (_target_embedder): Embedding()
  (_decoder_cell): LSTMCell(100, 200)
  (_output_projection_layer): Linear(in_features=200, out_features=23, bias=True)
),), Kwargs: {'source_tokens': {'tokens': tensor([[ 4, 18, 11, 17, 20, 15, 10,  5]], device='cuda:0')}, 'target_tokens': {'tokens': tensor([[4, 3, 7, 2, 8, 2, 8, 2, 8, 2, 8, 5]], device='cuda:0')}}
2018-10-27 00:49:55,767 - INFO - root - Args: (SimpleSeq2SeqWithMetrics(
  (_source_embedder): BasicTextFieldEmbedder(
    (token_embedder_tokens): Embedding()
  )
  (_encoder): PytorchSeq2SeqWrapper(
    (_module): LSTM(100, 200, num_layers=2, batch_first=True, dropout=0.5)
  )
  (_target_embedder): Embedding()
  (_decoder_cell): LSTMCell(100, 200)
  (_output_projection_layer): Linear(in_features=200, out_features=23, bias=True)
),), Kwargs: {'source_tokens': {'tokens': tensor([[ 4, 21, 11, 13, 17, 21, 14, 10, 12,  5]], device='cuda:0')}, 'target_tokens': {'tokens': tensor([[4, 3, 9, 3, 9, 3, 9, 2, 2, 9, 2, 2, 9, 5]], device='cuda:0')}}
2018-10-27 00:49:55,789 - INFO - root - Args: (SimpleSeq2SeqWithMetrics(
  (_source_embedder): BasicTextFieldEmbedder(
    (token_embedder_tokens): Embedding()
  )
  (_encoder): PytorchSeq2SeqWrapper(
    (_module): LSTM(100, 200, num_layers=2, batch_first=True, dropout=0.5)
  )
  (_target_embedder): Embedding()
  (_decoder_cell): LSTMCell(100, 200)
  (_output_projection_layer): Linear(in_features=200, out_features=23, bias=True)
),), Kwargs: {'source_tokens': {'tokens': tensor([[ 4, 19, 14, 10, 12, 16, 19, 15, 10, 12,  5]], device='cuda:0')}, 'target_tokens': {'tokens': tensor([[4, 2, 6, 2, 6, 2, 6, 2, 6, 2, 6, 2, 6, 2, 6, 2, 6, 2, 2, 6, 2, 2, 6, 5]],
       device='cuda:0')}}
2018-10-27 00:49:55,819 - INFO - root - Args: (SimpleSeq2SeqWithMetrics(
  (_source_embedder): BasicTextFieldEmbedder(
    (token_embedder_tokens): Embedding()
  )
  (_encoder): PytorchSeq2SeqWrapper(
    (_module): LSTM(100, 200, num_layers=2, batch_first=True, dropout=0.5)
  )
  (_target_embedder): Embedding()
  (_decoder_cell): LSTMCell(100, 200)
  (_output_projection_layer): Linear(in_features=200, out_features=23, bias=True)
),), Kwargs: {'source_tokens': {'tokens': tensor([[ 4, 22, 15, 10, 16, 18, 12,  5]], device='cuda:0')}, 'target_tokens': {'tokens': tensor([[4, 7, 7, 2, 2, 2, 2, 5]], device='cuda:0')}}
2018-10-27 00:49:55,834 - INFO - root - Args: (SimpleSeq2SeqWithMetrics(
  (_source_embedder): BasicTextFieldEmbedder(
    (token_embedder_tokens): Embedding()
  )
  (_encoder): PytorchSeq2SeqWrapper(
    (_module): LSTM(100, 200, num_layers=2, batch_first=True, dropout=0.5)
  )
  (_target_embedder): Embedding()
  (_decoder_cell): LSTMCell(100, 200)
  (_output_projection_layer): Linear(in_features=200, out_features=23, bias=True)
),), Kwargs: {'source_tokens': {'tokens': tensor([[ 4, 21, 14, 10, 12, 17, 20, 14, 10, 13,  5]], device='cuda:0')}, 'target_tokens': {'tokens': tensor([[4, 2, 2, 9, 2, 2, 9, 2, 2, 8, 2, 2, 8, 2, 2, 8, 5]], device='cuda:0')}}
2018-10-27 00:49:55,858 - INFO - root - Args: (SimpleSeq2SeqWithMetrics(
  (_source_embedder): BasicTextFieldEmbedder(
    (token_embedder_tokens): Embedding()
  )
  (_encoder): PytorchSeq2SeqWrapper(
    (_module): LSTM(100, 200, num_layers=2, batch_first=True, dropout=0.5)
  )
  (_target_embedder): Embedding()
  (_decoder_cell): LSTMCell(100, 200)
  (_output_projection_layer): Linear(in_features=200, out_features=23, bias=True)
),), Kwargs: {'source_tokens': {'tokens': tensor([[ 4, 22, 15, 10, 17, 18, 14, 11, 13,  5]], device='cuda:0')}, 'target_tokens': {'tokens': tensor([[4, 2, 2, 2, 2, 3, 3, 7, 3, 3, 7, 3, 3, 7, 5]], device='cuda:0')}}
2018-10-27 00:49:55,880 - INFO - root - Args: (SimpleSeq2SeqWithMetrics(
  (_source_embedder): BasicTextFieldEmbedder(
    (token_embedder_tokens): Embedding()
  )
  (_encoder): PytorchSeq2SeqWrapper(
    (_module): LSTM(100, 200, num_layers=2, batch_first=True, dropout=0.5)
  )
  (_target_embedder): Embedding()
  (_decoder_cell): LSTMCell(100, 200)
  (_output_projection_layer): Linear(in_features=200, out_features=23, bias=True)
),), Kwargs: {'source_tokens': {'tokens': tensor([[ 4, 21, 12, 16, 19, 15, 10, 12,  5]], device='cuda:0')}, 'target_tokens': {'tokens': tensor([[4, 2, 6, 2, 6, 2, 6, 2, 6, 2, 6, 2, 6, 2, 6, 2, 6, 9, 9, 5]],
       device='cuda:0')}}
2018-10-27 00:49:55,905 - INFO - root - Args: (SimpleSeq2SeqWithMetrics(
  (_source_embedder): BasicTextFieldEmbedder(
    (token_embedder_tokens): Embedding()
  )
  (_encoder): PytorchSeq2SeqWrapper(
    (_module): LSTM(100, 200, num_layers=2, batch_first=True, dropout=0.5)
  )
  (_target_embedder): Embedding()
  (_decoder_cell): LSTMCell(100, 200)
  (_output_projection_layer): Linear(in_features=200, out_features=23, bias=True)
),), Kwargs: {'source_tokens': {'tokens': tensor([[ 4, 21, 15, 11, 13, 16, 20, 14, 10, 12,  5]], device='cuda:0')}, 'target_tokens': {'tokens': tensor([[4, 2, 2, 8, 2, 2, 8, 3, 9, 3, 9, 3, 9, 3, 9, 3, 9, 3, 9, 3, 9, 3, 9, 3,
         9, 3, 9, 3, 9, 3, 9, 5]], device='cuda:0')}}
2018-10-27 00:49:55,940 - INFO - root - Args: (SimpleSeq2SeqWithMetrics(
  (_source_embedder): BasicTextFieldEmbedder(
    (token_embedder_tokens): Embedding()
  )
  (_encoder): PytorchSeq2SeqWrapper(
    (_module): LSTM(100, 200, num_layers=2, batch_first=True, dropout=0.5)
  )
  (_target_embedder): Embedding()
  (_decoder_cell): LSTMCell(100, 200)
  (_output_projection_layer): Linear(in_features=200, out_features=23, bias=True)
),), Kwargs: {'source_tokens': {'tokens': tensor([[ 4, 21, 10, 12, 17, 21, 15, 10, 12,  5]], device='cuda:0')}, 'target_tokens': {'tokens': tensor([[4, 2, 9, 2, 9, 2, 9, 2, 9, 2, 9, 2, 9, 2, 9, 2, 9, 2, 9, 2, 9, 5]],
       device='cuda:0')}}
2018-10-27 00:49:55,966 - INFO - root - Args: (SimpleSeq2SeqWithMetrics(
  (_source_embedder): BasicTextFieldEmbedder(
    (token_embedder_tokens): Embedding()
  )
  (_encoder): PytorchSeq2SeqWrapper(
    (_module): LSTM(100, 200, num_layers=2, batch_first=True, dropout=0.5)
  )
  (_target_embedder): Embedding()
  (_decoder_cell): LSTMCell(100, 200)
  (_output_projection_layer): Linear(in_features=200, out_features=23, bias=True)
),), Kwargs: {'source_tokens': {'tokens': tensor([[ 4, 20, 11, 12, 16, 22, 14, 10,  5]], device='cuda:0')}, 'target_tokens': {'tokens': tensor([[4, 2, 2, 3, 8, 3, 8, 5]], device='cuda:0')}}
2018-10-27 00:49:55,983 - INFO - root - Args: (SimpleSeq2SeqWithMetrics(
  (_source_embedder): BasicTextFieldEmbedder(
    (token_embedder_tokens): Embedding()
  )
  (_encoder): PytorchSeq2SeqWrapper(
    (_module): LSTM(100, 200, num_layers=2, batch_first=True, dropout=0.5)
  )
  (_target_embedder): Embedding()
  (_decoder_cell): LSTMCell(100, 200)
  (_output_projection_layer): Linear(in_features=200, out_features=23, bias=True)
),), Kwargs: {'source_tokens': {'tokens': tensor([[ 4, 20, 17, 19, 15, 10, 12,  5]], device='cuda:0')}, 'target_tokens': {'tokens': tensor([[4, 8, 2, 6, 2, 6, 2, 6, 2, 6, 2, 6, 2, 6, 2, 6, 2, 6, 5]], device='cuda:0')}}
2018-10-27 00:49:56,010 - INFO - root - Args: (SimpleSeq2SeqWithMetrics(
  (_source_embedder): BasicTextFieldEmbedder(
    (token_embedder_tokens): Embedding()
  )
  (_encoder): PytorchSeq2SeqWrapper(
    (_module): LSTM(100, 200, num_layers=2, batch_first=True, dropout=0.5)
  )
  (_target_embedder): Embedding()
  (_decoder_cell): LSTMCell(100, 200)
  (_output_projection_layer): Linear(in_features=200, out_features=23, bias=True)
),), Kwargs: {'source_tokens': {'tokens': tensor([[ 4, 18, 14, 10, 13, 17, 18, 14, 10, 13,  5]], device='cuda:0')}, 'target_tokens': {'tokens': tensor([[4, 2, 2, 7, 2, 2, 7, 2, 2, 7, 2, 2, 7, 2, 2, 7, 2, 2, 7, 5]],
       device='cuda:0')}}
2018-10-27 00:49:56,035 - INFO - root - Args: (SimpleSeq2SeqWithMetrics(
  (_source_embedder): BasicTextFieldEmbedder(
    (token_embedder_tokens): Embedding()
  )
  (_encoder): PytorchSeq2SeqWrapper(
    (_module): LSTM(100, 200, num_layers=2, batch_first=True, dropout=0.5)
  )
  (_target_embedder): Embedding()
  (_decoder_cell): LSTMCell(100, 200)
  (_output_projection_layer): Linear(in_features=200, out_features=23, bias=True)
),), Kwargs: {'source_tokens': {'tokens': tensor([[ 4, 22, 14, 11, 17, 22, 15, 10, 12,  5]], device='cuda:0')}, 'target_tokens': {'tokens': tensor([[4, 3, 3, 2, 2, 2, 2, 2, 2, 2, 2, 5]], device='cuda:0')}}
2018-10-27 00:49:56,054 - INFO - root - Args: (SimpleSeq2SeqWithMetrics(
  (_source_embedder): BasicTextFieldEmbedder(
    (token_embedder_tokens): Embedding()
  )
  (_encoder): PytorchSeq2SeqWrapper(
    (_module): LSTM(100, 200, num_layers=2, batch_first=True, dropout=0.5)
  )
  (_target_embedder): Embedding()
  (_decoder_cell): LSTMCell(100, 200)
  (_output_projection_layer): Linear(in_features=200, out_features=23, bias=True)
),), Kwargs: {'source_tokens': {'tokens': tensor([[ 4, 22, 15, 10, 16, 21, 15, 10, 12,  5]], device='cuda:0')}, 'target_tokens': {'tokens': tensor([[4, 2, 9, 2, 9, 2, 9, 2, 9, 2, 9, 2, 9, 2, 9, 2, 9, 2, 2, 2, 2, 5]],
       device='cuda:0')}}
2018-10-27 00:49:56,082 - INFO - root - Args: (SimpleSeq2SeqWithMetrics(
  (_source_embedder): BasicTextFieldEmbedder(
    (token_embedder_tokens): Embedding()
  )
  (_encoder): PytorchSeq2SeqWrapper(
    (_module): LSTM(100, 200, num_layers=2, batch_first=True, dropout=0.5)
  )
  (_target_embedder): Embedding()
  (_decoder_cell): LSTMCell(100, 200)
  (_output_projection_layer): Linear(in_features=200, out_features=23, bias=True)
),), Kwargs: {'source_tokens': {'tokens': tensor([[ 4, 22, 14, 10, 17, 21, 15, 11,  5]], device='cuda:0')}, 'target_tokens': {'tokens': tensor([[4, 2, 2, 3, 9, 3, 9, 3, 9, 3, 9, 5]], device='cuda:0')}}
2018-10-27 00:49:56,102 - INFO - root - Args: (SimpleSeq2SeqWithMetrics(
  (_source_embedder): BasicTextFieldEmbedder(
    (token_embedder_tokens): Embedding()
  )
  (_encoder): PytorchSeq2SeqWrapper(
    (_module): LSTM(100, 200, num_layers=2, batch_first=True, dropout=0.5)
  )
  (_target_embedder): Embedding()
  (_decoder_cell): LSTMCell(100, 200)
  (_output_projection_layer): Linear(in_features=200, out_features=23, bias=True)
),), Kwargs: {'source_tokens': {'tokens': tensor([[ 4, 21, 11, 17, 18, 15, 11, 13,  5]], device='cuda:0')}, 'target_tokens': {'tokens': tensor([[4, 3, 9, 3, 7, 3, 7, 3, 7, 3, 7, 3, 7, 3, 7, 3, 7, 3, 7, 3, 7, 3, 7, 3,
         7, 3, 7, 5]], device='cuda:0')}}
2018-10-27 00:49:56,134 - INFO - root - Args: (SimpleSeq2SeqWithMetrics(
  (_source_embedder): BasicTextFieldEmbedder(
    (token_embedder_tokens): Embedding()
  )
  (_encoder): PytorchSeq2SeqWrapper(
    (_module): LSTM(100, 200, num_layers=2, batch_first=True, dropout=0.5)
  )
  (_target_embedder): Embedding()
  (_decoder_cell): LSTMCell(100, 200)
  (_output_projection_layer): Linear(in_features=200, out_features=23, bias=True)
),), Kwargs: {'source_tokens': {'tokens': tensor([[ 4, 18, 15, 11, 17, 18, 15, 10, 13,  5]], device='cuda:0')}, 'target_tokens': {'tokens': tensor([[4, 3, 7, 3, 7, 3, 7, 3, 7, 2, 7, 2, 7, 2, 7, 2, 7, 2, 7, 2, 7, 2, 7, 2,
         7, 2, 7, 2, 7, 2, 7, 2, 7, 5]], device='cuda:0')}}
2018-10-27 00:49:56,171 - INFO - root - Args: (SimpleSeq2SeqWithMetrics(
  (_source_embedder): BasicTextFieldEmbedder(
    (token_embedder_tokens): Embedding()
  )
  (_encoder): PytorchSeq2SeqWrapper(
    (_module): LSTM(100, 200, num_layers=2, batch_first=True, dropout=0.5)
  )
  (_target_embedder): Embedding()
  (_decoder_cell): LSTMCell(100, 200)
  (_output_projection_layer): Linear(in_features=200, out_features=23, bias=True)
),), Kwargs: {'source_tokens': {'tokens': tensor([[ 4, 18, 14, 10, 12, 16, 20, 10, 13,  5]], device='cuda:0')}, 'target_tokens': {'tokens': tensor([[4, 2, 8, 2, 8, 2, 8, 2, 2, 7, 2, 2, 7, 5]], device='cuda:0')}}
2018-10-27 00:49:56,219 - INFO - root - Args: (SimpleSeq2SeqWithMetrics(
  (_source_embedder): BasicTextFieldEmbedder(
    (token_embedder_tokens): Embedding()
  )
  (_encoder): PytorchSeq2SeqWrapper(
    (_module): LSTM(100, 200, num_layers=2, batch_first=True, dropout=0.5)
  )
  (_target_embedder): Embedding()
  (_decoder_cell): LSTMCell(100, 200)
  (_output_projection_layer): Linear(in_features=200, out_features=23, bias=True)
),), Kwargs: {'source_tokens': {'tokens': tensor([[ 4, 19, 16, 19,  5]], device='cuda:0')}, 'target_tokens': {'tokens': tensor([[4, 6, 6, 5]], device='cuda:0')}}
2018-10-27 00:49:56,232 - INFO - root - Args: (SimpleSeq2SeqWithMetrics(
  (_source_embedder): BasicTextFieldEmbedder(
    (token_embedder_tokens): Embedding()
  )
  (_encoder): PytorchSeq2SeqWrapper(
    (_module): LSTM(100, 200, num_layers=2, batch_first=True, dropout=0.5)
  )
  (_target_embedder): Embedding()
  (_decoder_cell): LSTMCell(100, 200)
  (_output_projection_layer): Linear(in_features=200, out_features=23, bias=True)
),), Kwargs: {'source_tokens': {'tokens': tensor([[ 4, 20, 14, 11,  5]], device='cuda:0')}, 'target_tokens': {'tokens': tensor([[4, 3, 3, 8, 5]], device='cuda:0')}}
2018-10-27 00:49:56,245 - INFO - root - Args: (SimpleSeq2SeqWithMetrics(
  (_source_embedder): BasicTextFieldEmbedder(
    (token_embedder_tokens): Embedding()
  )
  (_encoder): PytorchSeq2SeqWrapper(
    (_module): LSTM(100, 200, num_layers=2, batch_first=True, dropout=0.5)
  )
  (_target_embedder): Embedding()
  (_decoder_cell): LSTMCell(100, 200)
  (_output_projection_layer): Linear(in_features=200, out_features=23, bias=True)
),), Kwargs: {'source_tokens': {'tokens': tensor([[ 4, 22, 11, 12, 16, 22, 15, 11, 13,  5]], device='cuda:0')}, 'target_tokens': {'tokens': tensor([[4, 3, 3, 3, 3, 3, 3, 3, 3, 3, 3, 3, 3, 3, 3, 5]], device='cuda:0')}}
2018-10-27 00:49:56,268 - INFO - root - Args: (SimpleSeq2SeqWithMetrics(
  (_source_embedder): BasicTextFieldEmbedder(
    (token_embedder_tokens): Embedding()
  )
  (_encoder): PytorchSeq2SeqWrapper(
    (_module): LSTM(100, 200, num_layers=2, batch_first=True, dropout=0.5)
  )
  (_target_embedder): Embedding()
  (_decoder_cell): LSTMCell(100, 200)
  (_output_projection_layer): Linear(in_features=200, out_features=23, bias=True)
),), Kwargs: {'source_tokens': {'tokens': tensor([[ 4, 20, 11, 12, 17, 21, 12,  5]], device='cuda:0')}, 'target_tokens': {'tokens': tensor([[4, 3, 8, 3, 8, 9, 9, 5]], device='cuda:0')}}
2018-10-27 00:49:56,284 - INFO - root - Args: (SimpleSeq2SeqWithMetrics(
  (_source_embedder): BasicTextFieldEmbedder(
    (token_embedder_tokens): Embedding()
  )
  (_encoder): PytorchSeq2SeqWrapper(
    (_module): LSTM(100, 200, num_layers=2, batch_first=True, dropout=0.5)
  )
  (_target_embedder): Embedding()
  (_decoder_cell): LSTMCell(100, 200)
  (_output_projection_layer): Linear(in_features=200, out_features=23, bias=True)
),), Kwargs: {'source_tokens': {'tokens': tensor([[ 4, 20, 10, 17, 19, 15, 10,  5]], device='cuda:0')}, 'target_tokens': {'tokens': tensor([[4, 2, 8, 2, 6, 2, 6, 2, 6, 2, 6, 5]], device='cuda:0')}}
2018-10-27 00:49:56,304 - INFO - root - Args: (SimpleSeq2SeqWithMetrics(
  (_source_embedder): BasicTextFieldEmbedder(
    (token_embedder_tokens): Embedding()
  )
  (_encoder): PytorchSeq2SeqWrapper(
    (_module): LSTM(100, 200, num_layers=2, batch_first=True, dropout=0.5)
  )
  (_target_embedder): Embedding()
  (_decoder_cell): LSTMCell(100, 200)
  (_output_projection_layer): Linear(in_features=200, out_features=23, bias=True)
),), Kwargs: {'source_tokens': {'tokens': tensor([[ 4, 22, 14, 10, 12, 16, 20, 10, 12,  5]], device='cuda:0')}, 'target_tokens': {'tokens': tensor([[4, 2, 8, 2, 8, 2, 2, 2, 2, 5]], device='cuda:0')}}
2018-10-27 00:49:56,321 - INFO - root - Args: (SimpleSeq2SeqWithMetrics(
  (_source_embedder): BasicTextFieldEmbedder(
    (token_embedder_tokens): Embedding()
  )
  (_encoder): PytorchSeq2SeqWrapper(
    (_module): LSTM(100, 200, num_layers=2, batch_first=True, dropout=0.5)
  )
  (_target_embedder): Embedding()
  (_decoder_cell): LSTMCell(100, 200)
  (_output_projection_layer): Linear(in_features=200, out_features=23, bias=True)
),), Kwargs: {'source_tokens': {'tokens': tensor([[ 4, 21, 10, 16, 20, 14, 11, 12,  5]], device='cuda:0')}, 'target_tokens': {'tokens': tensor([[4, 3, 3, 8, 3, 3, 8, 2, 9, 5]], device='cuda:0')}}
2018-10-27 00:49:56,347 - INFO - root - Args: (SimpleSeq2SeqWithMetrics(
  (_source_embedder): BasicTextFieldEmbedder(
    (token_embedder_tokens): Embedding()
  )
  (_encoder): PytorchSeq2SeqWrapper(
    (_module): LSTM(100, 200, num_layers=2, batch_first=True, dropout=0.5)
  )
  (_target_embedder): Embedding()
  (_decoder_cell): LSTMCell(100, 200)
  (_output_projection_layer): Linear(in_features=200, out_features=23, bias=True)
),), Kwargs: {'source_tokens': {'tokens': tensor([[ 4, 20, 14, 11, 12, 16, 21, 10, 13,  5]], device='cuda:0')}, 'target_tokens': {'tokens': tensor([[4, 2, 9, 2, 9, 2, 9, 3, 3, 8, 3, 3, 8, 5]], device='cuda:0')}}
2018-10-27 00:49:56,368 - INFO - root - Args: (SimpleSeq2SeqWithMetrics(
  (_source_embedder): BasicTextFieldEmbedder(
    (token_embedder_tokens): Embedding()
  )
  (_encoder): PytorchSeq2SeqWrapper(
    (_module): LSTM(100, 200, num_layers=2, batch_first=True, dropout=0.5)
  )
  (_target_embedder): Embedding()
  (_decoder_cell): LSTMCell(100, 200)
  (_output_projection_layer): Linear(in_features=200, out_features=23, bias=True)
),), Kwargs: {'source_tokens': {'tokens': tensor([[ 4, 19, 14, 10, 13, 16, 22, 14, 11, 13,  5]], device='cuda:0')}, 'target_tokens': {'tokens': tensor([[4, 3, 3, 3, 3, 3, 3, 2, 2, 6, 2, 2, 6, 2, 2, 6, 5]], device='cuda:0')}}
2018-10-27 00:49:56,390 - INFO - root - Args: (SimpleSeq2SeqWithMetrics(
  (_source_embedder): BasicTextFieldEmbedder(
    (token_embedder_tokens): Embedding()
  )
  (_encoder): PytorchSeq2SeqWrapper(
    (_module): LSTM(100, 200, num_layers=2, batch_first=True, dropout=0.5)
  )
  (_target_embedder): Embedding()
  (_decoder_cell): LSTMCell(100, 200)
  (_output_projection_layer): Linear(in_features=200, out_features=23, bias=True)
),), Kwargs: {'source_tokens': {'tokens': tensor([[ 4, 22, 15, 11, 17, 19, 12,  5]], device='cuda:0')}, 'target_tokens': {'tokens': tensor([[4, 3, 3, 3, 3, 6, 6, 5]], device='cuda:0')}}
2018-10-27 00:49:56,406 - INFO - root - Args: (SimpleSeq2SeqWithMetrics(
  (_source_embedder): BasicTextFieldEmbedder(
    (token_embedder_tokens): Embedding()
  )
  (_encoder): PytorchSeq2SeqWrapper(
    (_module): LSTM(100, 200, num_layers=2, batch_first=True, dropout=0.5)
  )
  (_target_embedder): Embedding()
  (_decoder_cell): LSTMCell(100, 200)
  (_output_projection_layer): Linear(in_features=200, out_features=23, bias=True)
),), Kwargs: {'source_tokens': {'tokens': tensor([[ 4, 19, 15, 10, 17, 21, 10, 13,  5]], device='cuda:0')}, 'target_tokens': {'tokens': tensor([[4, 2, 6, 2, 6, 2, 6, 2, 6, 2, 9, 2, 9, 2, 9, 5]], device='cuda:0')}}
2018-10-27 00:49:56,429 - INFO - root - Args: (SimpleSeq2SeqWithMetrics(
  (_source_embedder): BasicTextFieldEmbedder(
    (token_embedder_tokens): Embedding()
  )
  (_encoder): PytorchSeq2SeqWrapper(
    (_module): LSTM(100, 200, num_layers=2, batch_first=True, dropout=0.5)
  )
  (_target_embedder): Embedding()
  (_decoder_cell): LSTMCell(100, 200)
  (_output_projection_layer): Linear(in_features=200, out_features=23, bias=True)
),), Kwargs: {'source_tokens': {'tokens': tensor([[ 4, 19, 10, 16, 21, 15, 11,  5]], device='cuda:0')}, 'target_tokens': {'tokens': tensor([[4, 3, 9, 3, 9, 3, 9, 3, 9, 2, 6, 5]], device='cuda:0')}}
2018-10-27 00:49:56,448 - INFO - root - Args: (SimpleSeq2SeqWithMetrics(
  (_source_embedder): BasicTextFieldEmbedder(
    (token_embedder_tokens): Embedding()
  )
  (_encoder): PytorchSeq2SeqWrapper(
    (_module): LSTM(100, 200, num_layers=2, batch_first=True, dropout=0.5)
  )
  (_target_embedder): Embedding()
  (_decoder_cell): LSTMCell(100, 200)
  (_output_projection_layer): Linear(in_features=200, out_features=23, bias=True)
),), Kwargs: {'source_tokens': {'tokens': tensor([[ 4, 22, 14, 10, 16, 22, 14, 10, 13,  5]], device='cuda:0')}, 'target_tokens': {'tokens': tensor([[4, 2, 2, 2, 2, 2, 2, 2, 2, 5]], device='cuda:0')}}
2018-10-27 00:49:56,465 - INFO - root - Args: (SimpleSeq2SeqWithMetrics(
  (_source_embedder): BasicTextFieldEmbedder(
    (token_embedder_tokens): Embedding()
  )
  (_encoder): PytorchSeq2SeqWrapper(
    (_module): LSTM(100, 200, num_layers=2, batch_first=True, dropout=0.5)
  )
  (_target_embedder): Embedding()
  (_decoder_cell): LSTMCell(100, 200)
  (_output_projection_layer): Linear(in_features=200, out_features=23, bias=True)
),), Kwargs: {'source_tokens': {'tokens': tensor([[ 4, 20, 15, 10, 13, 17, 19, 14, 11,  5]], device='cuda:0')}, 'target_tokens': {'tokens': tensor([[4, 2, 8, 2, 8, 2, 8, 2, 8, 2, 8, 2, 8, 2, 8, 2, 8, 2, 8, 2, 8, 2, 8, 2,
         8, 3, 3, 6, 5]], device='cuda:0')}}
2018-10-27 00:49:56,494 - INFO - root - Args: (SimpleSeq2SeqWithMetrics(
  (_source_embedder): BasicTextFieldEmbedder(
    (token_embedder_tokens): Embedding()
  )
  (_encoder): PytorchSeq2SeqWrapper(
    (_module): LSTM(100, 200, num_layers=2, batch_first=True, dropout=0.5)
  )
  (_target_embedder): Embedding()
  (_decoder_cell): LSTMCell(100, 200)
  (_output_projection_layer): Linear(in_features=200, out_features=23, bias=True)
),), Kwargs: {'source_tokens': {'tokens': tensor([[ 4, 18, 15, 11, 17, 19, 15, 11, 12,  5]], device='cuda:0')}, 'target_tokens': {'tokens': tensor([[4, 3, 7, 3, 7, 3, 7, 3, 7, 3, 6, 3, 6, 3, 6, 3, 6, 3, 6, 3, 6, 3, 6, 3,
         6, 5]], device='cuda:0')}}
2018-10-27 00:49:56,522 - INFO - root - Args: (SimpleSeq2SeqWithMetrics(
  (_source_embedder): BasicTextFieldEmbedder(
    (token_embedder_tokens): Embedding()
  )
  (_encoder): PytorchSeq2SeqWrapper(
    (_module): LSTM(100, 200, num_layers=2, batch_first=True, dropout=0.5)
  )
  (_target_embedder): Embedding()
  (_decoder_cell): LSTMCell(100, 200)
  (_output_projection_layer): Linear(in_features=200, out_features=23, bias=True)
),), Kwargs: {'source_tokens': {'tokens': tensor([[ 4, 21, 10, 13, 16, 18, 15, 10, 12,  5]], device='cuda:0')}, 'target_tokens': {'tokens': tensor([[4, 2, 7, 2, 7, 2, 7, 2, 7, 2, 7, 2, 7, 2, 7, 2, 7, 2, 9, 2, 9, 2, 9, 5]],
       device='cuda:0')}}
2018-10-27 00:49:56,547 - INFO - root - Args: (SimpleSeq2SeqWithMetrics(
  (_source_embedder): BasicTextFieldEmbedder(
    (token_embedder_tokens): Embedding()
  )
  (_encoder): PytorchSeq2SeqWrapper(
    (_module): LSTM(100, 200, num_layers=2, batch_first=True, dropout=0.5)
  )
  (_target_embedder): Embedding()
  (_decoder_cell): LSTMCell(100, 200)
  (_output_projection_layer): Linear(in_features=200, out_features=23, bias=True)
),), Kwargs: {'source_tokens': {'tokens': tensor([[ 4, 19, 15, 11, 16, 21, 14, 10, 13,  5]], device='cuda:0')}, 'target_tokens': {'tokens': tensor([[4, 2, 2, 9, 2, 2, 9, 2, 2, 9, 3, 6, 3, 6, 3, 6, 3, 6, 5]], device='cuda:0')}}
2018-10-27 00:49:56,568 - INFO - root - Args: (SimpleSeq2SeqWithMetrics(
  (_source_embedder): BasicTextFieldEmbedder(
    (token_embedder_tokens): Embedding()
  )
  (_encoder): PytorchSeq2SeqWrapper(
    (_module): LSTM(100, 200, num_layers=2, batch_first=True, dropout=0.5)
  )
  (_target_embedder): Embedding()
  (_decoder_cell): LSTMCell(100, 200)
  (_output_projection_layer): Linear(in_features=200, out_features=23, bias=True)
),), Kwargs: {'source_tokens': {'tokens': tensor([[ 4, 20, 11, 12, 16, 19, 15, 10, 12,  5]], device='cuda:0')}, 'target_tokens': {'tokens': tensor([[4, 2, 6, 2, 6, 2, 6, 2, 6, 2, 6, 2, 6, 2, 6, 2, 6, 3, 8, 3, 8, 5]],
       device='cuda:0')}}
2018-10-27 00:49:56,591 - INFO - root - Args: (SimpleSeq2SeqWithMetrics(
  (_source_embedder): BasicTextFieldEmbedder(
    (token_embedder_tokens): Embedding()
  )
  (_encoder): PytorchSeq2SeqWrapper(
    (_module): LSTM(100, 200, num_layers=2, batch_first=True, dropout=0.5)
  )
  (_target_embedder): Embedding()
  (_decoder_cell): LSTMCell(100, 200)
  (_output_projection_layer): Linear(in_features=200, out_features=23, bias=True)
),), Kwargs: {'source_tokens': {'tokens': tensor([[ 4, 19, 14, 11, 12, 16, 20, 15, 11,  5]], device='cuda:0')}, 'target_tokens': {'tokens': tensor([[4, 3, 8, 3, 8, 3, 8, 3, 8, 3, 3, 6, 3, 3, 6, 5]], device='cuda:0')}}
2018-10-27 00:49:56,611 - INFO - root - Args: (SimpleSeq2SeqWithMetrics(
  (_source_embedder): BasicTextFieldEmbedder(
    (token_embedder_tokens): Embedding()
  )
  (_encoder): PytorchSeq2SeqWrapper(
    (_module): LSTM(100, 200, num_layers=2, batch_first=True, dropout=0.5)
  )
  (_target_embedder): Embedding()
  (_decoder_cell): LSTMCell(100, 200)
  (_output_projection_layer): Linear(in_features=200, out_features=23, bias=True)
),), Kwargs: {'source_tokens': {'tokens': tensor([[ 4, 18, 15, 10, 17, 21, 10,  5]], device='cuda:0')}, 'target_tokens': {'tokens': tensor([[4, 2, 7, 2, 7, 2, 7, 2, 7, 2, 9, 5]], device='cuda:0')}}
2018-10-27 00:49:56,631 - INFO - root - Args: (SimpleSeq2SeqWithMetrics(
  (_source_embedder): BasicTextFieldEmbedder(
    (token_embedder_tokens): Embedding()
  )
  (_encoder): PytorchSeq2SeqWrapper(
    (_module): LSTM(100, 200, num_layers=2, batch_first=True, dropout=0.5)
  )
  (_target_embedder): Embedding()
  (_decoder_cell): LSTMCell(100, 200)
  (_output_projection_layer): Linear(in_features=200, out_features=23, bias=True)
),), Kwargs: {'source_tokens': {'tokens': tensor([[ 4, 20, 14, 11, 16, 21, 11, 12,  5]], device='cuda:0')}, 'target_tokens': {'tokens': tensor([[4, 3, 9, 3, 9, 3, 3, 8, 5]], device='cuda:0')}}
2018-10-27 00:49:56,649 - INFO - root - Args: (SimpleSeq2SeqWithMetrics(
  (_source_embedder): BasicTextFieldEmbedder(
    (token_embedder_tokens): Embedding()
  )
  (_encoder): PytorchSeq2SeqWrapper(
    (_module): LSTM(100, 200, num_layers=2, batch_first=True, dropout=0.5)
  )
  (_target_embedder): Embedding()
  (_decoder_cell): LSTMCell(100, 200)
  (_output_projection_layer): Linear(in_features=200, out_features=23, bias=True)
),), Kwargs: {'source_tokens': {'tokens': tensor([[ 4, 22, 14, 11, 13, 17, 22, 15, 10,  5]], device='cuda:0')}, 'target_tokens': {'tokens': tensor([[4, 3, 3, 3, 3, 3, 3, 2, 2, 2, 2, 5]], device='cuda:0')}}
2018-10-27 00:49:56,666 - INFO - root - Args: (SimpleSeq2SeqWithMetrics(
  (_source_embedder): BasicTextFieldEmbedder(
    (token_embedder_tokens): Embedding()
  )
  (_encoder): PytorchSeq2SeqWrapper(
    (_module): LSTM(100, 200, num_layers=2, batch_first=True, dropout=0.5)
  )
  (_target_embedder): Embedding()
  (_decoder_cell): LSTMCell(100, 200)
  (_output_projection_layer): Linear(in_features=200, out_features=23, bias=True)
),), Kwargs: {'source_tokens': {'tokens': tensor([[ 4, 19, 14, 11, 12, 17, 18, 14, 11, 13,  5]], device='cuda:0')}, 'target_tokens': {'tokens': tensor([[4, 3, 3, 6, 3, 3, 6, 3, 3, 7, 3, 3, 7, 3, 3, 7, 5]], device='cuda:0')}}
2018-10-27 00:49:56,685 - INFO - root - Args: (SimpleSeq2SeqWithMetrics(
  (_source_embedder): BasicTextFieldEmbedder(
    (token_embedder_tokens): Embedding()
  )
  (_encoder): PytorchSeq2SeqWrapper(
    (_module): LSTM(100, 200, num_layers=2, batch_first=True, dropout=0.5)
  )
  (_target_embedder): Embedding()
  (_decoder_cell): LSTMCell(100, 200)
  (_output_projection_layer): Linear(in_features=200, out_features=23, bias=True)
),), Kwargs: {'source_tokens': {'tokens': tensor([[ 4, 21, 12, 17, 21, 15, 11, 13,  5]], device='cuda:0')}, 'target_tokens': {'tokens': tensor([[4, 9, 9, 3, 9, 3, 9, 3, 9, 3, 9, 3, 9, 3, 9, 3, 9, 3, 9, 3, 9, 3, 9, 3,
         9, 3, 9, 5]], device='cuda:0')}}
2018-10-27 00:49:56,712 - INFO - root - Args: (SimpleSeq2SeqWithMetrics(
  (_source_embedder): BasicTextFieldEmbedder(
    (token_embedder_tokens): Embedding()
  )
  (_encoder): PytorchSeq2SeqWrapper(
    (_module): LSTM(100, 200, num_layers=2, batch_first=True, dropout=0.5)
  )
  (_target_embedder): Embedding()
  (_decoder_cell): LSTMCell(100, 200)
  (_output_projection_layer): Linear(in_features=200, out_features=23, bias=True)
),), Kwargs: {'source_tokens': {'tokens': tensor([[ 4, 19, 14, 11, 16, 20, 11, 12,  5]], device='cuda:0')}, 'target_tokens': {'tokens': tensor([[4, 3, 8, 3, 8, 3, 3, 6, 5]], device='cuda:0')}}
2018-10-27 00:49:56,726 - INFO - root - Args: (SimpleSeq2SeqWithMetrics(
  (_source_embedder): BasicTextFieldEmbedder(
    (token_embedder_tokens): Embedding()
  )
  (_encoder): PytorchSeq2SeqWrapper(
    (_module): LSTM(100, 200, num_layers=2, batch_first=True, dropout=0.5)
  )
  (_target_embedder): Embedding()
  (_decoder_cell): LSTMCell(100, 200)
  (_output_projection_layer): Linear(in_features=200, out_features=23, bias=True)
),), Kwargs: {'source_tokens': {'tokens': tensor([[ 4, 20, 14, 10, 16, 22, 15, 11,  5]], device='cuda:0')}, 'target_tokens': {'tokens': tensor([[4, 3, 3, 3, 3, 2, 2, 8, 5]], device='cuda:0')}}
2018-10-27 00:49:56,740 - INFO - root - Args: (SimpleSeq2SeqWithMetrics(
  (_source_embedder): BasicTextFieldEmbedder(
    (token_embedder_tokens): Embedding()
  )
  (_encoder): PytorchSeq2SeqWrapper(
    (_module): LSTM(100, 200, num_layers=2, batch_first=True, dropout=0.5)
  )
  (_target_embedder): Embedding()
  (_decoder_cell): LSTMCell(100, 200)
  (_output_projection_layer): Linear(in_features=200, out_features=23, bias=True)
),), Kwargs: {'source_tokens': {'tokens': tensor([[ 4, 20, 14, 10, 13, 16, 19, 14, 10, 12,  5]], device='cuda:0')}, 'target_tokens': {'tokens': tensor([[4, 2, 2, 6, 2, 2, 6, 2, 2, 8, 2, 2, 8, 2, 2, 8, 5]], device='cuda:0')}}
2018-10-27 00:49:56,759 - INFO - root - Args: (SimpleSeq2SeqWithMetrics(
  (_source_embedder): BasicTextFieldEmbedder(
    (token_embedder_tokens): Embedding()
  )
  (_encoder): PytorchSeq2SeqWrapper(
    (_module): LSTM(100, 200, num_layers=2, batch_first=True, dropout=0.5)
  )
  (_target_embedder): Embedding()
  (_decoder_cell): LSTMCell(100, 200)
  (_output_projection_layer): Linear(in_features=200, out_features=23, bias=True)
),), Kwargs: {'source_tokens': {'tokens': tensor([[ 4, 20, 14, 10, 16, 20, 10, 12,  5]], device='cuda:0')}, 'target_tokens': {'tokens': tensor([[4, 2, 8, 2, 8, 2, 2, 8, 5]], device='cuda:0')}}
2018-10-27 00:49:56,774 - INFO - root - Args: (SimpleSeq2SeqWithMetrics(
  (_source_embedder): BasicTextFieldEmbedder(
    (token_embedder_tokens): Embedding()
  )
  (_encoder): PytorchSeq2SeqWrapper(
    (_module): LSTM(100, 200, num_layers=2, batch_first=True, dropout=0.5)
  )
  (_target_embedder): Embedding()
  (_decoder_cell): LSTMCell(100, 200)
  (_output_projection_layer): Linear(in_features=200, out_features=23, bias=True)
),), Kwargs: {'source_tokens': {'tokens': tensor([[ 4, 21, 14, 11, 12, 17, 22, 14, 11, 12,  5]], device='cuda:0')}, 'target_tokens': {'tokens': tensor([[4, 3, 3, 9, 3, 3, 9, 3, 3, 3, 3, 5]], device='cuda:0')}}
2018-10-27 00:49:56,791 - INFO - root - Args: (SimpleSeq2SeqWithMetrics(
  (_source_embedder): BasicTextFieldEmbedder(
    (token_embedder_tokens): Embedding()
  )
  (_encoder): PytorchSeq2SeqWrapper(
    (_module): LSTM(100, 200, num_layers=2, batch_first=True, dropout=0.5)
  )
  (_target_embedder): Embedding()
  (_decoder_cell): LSTMCell(100, 200)
  (_output_projection_layer): Linear(in_features=200, out_features=23, bias=True)
),), Kwargs: {'source_tokens': {'tokens': tensor([[ 4, 18, 15, 11, 13, 16, 18, 14, 10, 12,  5]], device='cuda:0')}, 'target_tokens': {'tokens': tensor([[4, 2, 2, 7, 2, 2, 7, 3, 7, 3, 7, 3, 7, 3, 7, 3, 7, 3, 7, 3, 7, 3, 7, 3,
         7, 3, 7, 3, 7, 3, 7, 5]], device='cuda:0')}}
2018-10-27 00:49:56,826 - INFO - root - Args: (SimpleSeq2SeqWithMetrics(
  (_source_embedder): BasicTextFieldEmbedder(
    (token_embedder_tokens): Embedding()
  )
  (_encoder): PytorchSeq2SeqWrapper(
    (_module): LSTM(100, 200, num_layers=2, batch_first=True, dropout=0.5)
  )
  (_target_embedder): Embedding()
  (_decoder_cell): LSTMCell(100, 200)
  (_output_projection_layer): Linear(in_features=200, out_features=23, bias=True)
),), Kwargs: {'source_tokens': {'tokens': tensor([[ 4, 22, 14, 10, 13, 17, 20, 15, 11, 12,  5]], device='cuda:0')}, 'target_tokens': {'tokens': tensor([[4, 2, 2, 2, 2, 2, 2, 3, 8, 3, 8, 3, 8, 3, 8, 3, 8, 3, 8, 3, 8, 3, 8, 5]],
       device='cuda:0')}}
2018-10-27 00:49:56,858 - INFO - root - Args: (SimpleSeq2SeqWithMetrics(
  (_source_embedder): BasicTextFieldEmbedder(
    (token_embedder_tokens): Embedding()
  )
  (_encoder): PytorchSeq2SeqWrapper(
    (_module): LSTM(100, 200, num_layers=2, batch_first=True, dropout=0.5)
  )
  (_target_embedder): Embedding()
  (_decoder_cell): LSTMCell(100, 200)
  (_output_projection_layer): Linear(in_features=200, out_features=23, bias=True)
),), Kwargs: {'source_tokens': {'tokens': tensor([[ 4, 22, 10, 13, 17, 18, 15, 11, 13,  5]], device='cuda:0')}, 'target_tokens': {'tokens': tensor([[4, 2, 2, 2, 3, 7, 3, 7, 3, 7, 3, 7, 3, 7, 3, 7, 3, 7, 3, 7, 3, 7, 3, 7,
         3, 7, 3, 7, 5]], device='cuda:0')}}
2018-10-27 00:49:56,893 - INFO - root - Args: (SimpleSeq2SeqWithMetrics(
  (_source_embedder): BasicTextFieldEmbedder(
    (token_embedder_tokens): Embedding()
  )
  (_encoder): PytorchSeq2SeqWrapper(
    (_module): LSTM(100, 200, num_layers=2, batch_first=True, dropout=0.5)
  )
  (_target_embedder): Embedding()
  (_decoder_cell): LSTMCell(100, 200)
  (_output_projection_layer): Linear(in_features=200, out_features=23, bias=True)
),), Kwargs: {'source_tokens': {'tokens': tensor([[ 4, 22, 11, 16, 19, 13,  5]], device='cuda:0')}, 'target_tokens': {'tokens': tensor([[4, 6, 6, 6, 3, 5]], device='cuda:0')}}
2018-10-27 00:49:56,907 - INFO - root - Args: (SimpleSeq2SeqWithMetrics(
  (_source_embedder): BasicTextFieldEmbedder(
    (token_embedder_tokens): Embedding()
  )
  (_encoder): PytorchSeq2SeqWrapper(
    (_module): LSTM(100, 200, num_layers=2, batch_first=True, dropout=0.5)
  )
  (_target_embedder): Embedding()
  (_decoder_cell): LSTMCell(100, 200)
  (_output_projection_layer): Linear(in_features=200, out_features=23, bias=True)
),), Kwargs: {'source_tokens': {'tokens': tensor([[ 4, 20, 14, 10, 12, 17, 20, 14, 11,  5]], device='cuda:0')}, 'target_tokens': {'tokens': tensor([[4, 2, 2, 8, 2, 2, 8, 3, 3, 8, 5]], device='cuda:0')}}
2018-10-27 00:49:56,927 - INFO - root - Args: (SimpleSeq2SeqWithMetrics(
  (_source_embedder): BasicTextFieldEmbedder(
    (token_embedder_tokens): Embedding()
  )
  (_encoder): PytorchSeq2SeqWrapper(
    (_module): LSTM(100, 200, num_layers=2, batch_first=True, dropout=0.5)
  )
  (_target_embedder): Embedding()
  (_decoder_cell): LSTMCell(100, 200)
  (_output_projection_layer): Linear(in_features=200, out_features=23, bias=True)
),), Kwargs: {'source_tokens': {'tokens': tensor([[ 4, 20, 15, 10, 13, 16, 21, 12,  5]], device='cuda:0')}, 'target_tokens': {'tokens': tensor([[4, 9, 9, 2, 8, 2, 8, 2, 8, 2, 8, 2, 8, 2, 8, 2, 8, 2, 8, 2, 8, 2, 8, 2,
         8, 2, 8, 5]], device='cuda:0')}}
